dnn_hidden_units : 256, 128, 32
learning_rate : 0.001
nr_epochs : 100
batch_size : 200
eval_freq : 100
data_dir : dataloader/
neg_slope : 0.02
optimizer : Adam
amsgrad : True
weightdecay : 1e-05
momentum : 0
Training started
Device : cuda
ModuleList(
  (0): Linear(in_features=5376, out_features=256, bias=True)
  (1): LeakyReLU(negative_slope=0.02)
  (2): Linear(in_features=256, out_features=128, bias=True)
  (3): LeakyReLU(negative_slope=0.02)
  (4): Linear(in_features=128, out_features=32, bias=True)
  (5): LeakyReLU(negative_slope=0.02)
  (6): Linear(in_features=32, out_features=1, bias=True)
)


Epoch: 0
Average batch loss (epoch 0: 5.304836711885123 (4533 batches).
dnn_hidden_units : 2000, 100, 16
learning_rate : 0.001
nr_epochs : 100
batch_size : 200
eval_freq : 100
data_dir : dataloader/
neg_slope : 0.02
optimizer : Adam
amsgrad : True
weightdecay : 1e-05
momentum : 0
Training started
Device : cuda
ModuleList(
  (0): Linear(in_features=5376, out_features=2000, bias=True)
  (1): LeakyReLU(negative_slope=0.02)
  (2): Linear(in_features=2000, out_features=100, bias=True)
  (3): LeakyReLU(negative_slope=0.02)
  (4): Linear(in_features=100, out_features=16, bias=True)
  (5): LeakyReLU(negative_slope=0.02)
  (6): Linear(in_features=16, out_features=1, bias=True)
)


Epoch: 0
Average batch loss (epoch 0: 5.307666143780903 (4533 batches).
dnn_hidden_units : 300, 32
learning_rate : 0.001
nr_epochs : 100
batch_size : 200
eval_freq : 100
data_dir : dataloader/
neg_slope : 0.02
optimizer : Adam
amsgrad : True
weightdecay : 1e-05
momentum : 0
Training started
Device : cuda
ModuleList(
  (0): Linear(in_features=5376, out_features=300, bias=True)
  (1): LeakyReLU(negative_slope=0.02)
  (2): Linear(in_features=300, out_features=32, bias=True)
  (3): LeakyReLU(negative_slope=0.02)
  (4): Linear(in_features=32, out_features=1, bias=True)
)


Epoch: 0
Average batch loss (epoch 0: 5.30454271893719 (4533 batches).
dnn_hidden_units : 256, 128, 32
learning_rate : 0.01
nr_epochs : 100
batch_size : 200
eval_freq : 100
data_dir : dataloader/
neg_slope : 0.02
optimizer : Adam
amsgrad : True
weightdecay : 1e-05
momentum : 0
Training started
Device : cuda
ModuleList(
  (0): Linear(in_features=5376, out_features=256, bias=True)
  (1): LeakyReLU(negative_slope=0.02)
  (2): Linear(in_features=256, out_features=128, bias=True)
  (3): LeakyReLU(negative_slope=0.02)
  (4): Linear(in_features=128, out_features=32, bias=True)
  (5): LeakyReLU(negative_slope=0.02)
  (6): Linear(in_features=32, out_features=1, bias=True)
)


Epoch: 0
Average batch loss (epoch 0: 5.413787738313849 (4533 batches).
dnn_hidden_units : 2000, 100, 16
learning_rate : 0.01
nr_epochs : 100
batch_size : 200
eval_freq : 100
data_dir : dataloader/
neg_slope : 0.02
optimizer : Adam
amsgrad : True
weightdecay : 1e-05
momentum : 0
Training started
Device : cuda
ModuleList(
  (0): Linear(in_features=5376, out_features=2000, bias=True)
  (1): LeakyReLU(negative_slope=0.02)
  (2): Linear(in_features=2000, out_features=100, bias=True)
  (3): LeakyReLU(negative_slope=0.02)
  (4): Linear(in_features=100, out_features=16, bias=True)
  (5): LeakyReLU(negative_slope=0.02)
  (6): Linear(in_features=16, out_features=1, bias=True)
)


Epoch: 0
Average batch loss (epoch 0: 1375.731150527966 (4533 batches).
dnn_hidden_units : 300, 32
learning_rate : 0.01
nr_epochs : 100
batch_size : 200
eval_freq : 100
data_dir : dataloader/
neg_slope : 0.02
optimizer : Adam
amsgrad : True
weightdecay : 1e-05
momentum : 0
Training started
Device : cuda
ModuleList(
  (0): Linear(in_features=5376, out_features=300, bias=True)
  (1): LeakyReLU(negative_slope=0.02)
  (2): Linear(in_features=300, out_features=32, bias=True)
  (3): LeakyReLU(negative_slope=0.02)
  (4): Linear(in_features=32, out_features=1, bias=True)
)


Epoch: 0
Average batch loss (epoch 0: 5.505024108867258 (4533 batches).
dnn_hidden_units : 256, 128, 32
learning_rate : 0.0001
nr_epochs : 100
batch_size : 200
eval_freq : 100
data_dir : dataloader/
neg_slope : 0.02
optimizer : Adam
amsgrad : True
weightdecay : 1e-05
momentum : 0
Training started
Device : cuda
ModuleList(
  (0): Linear(in_features=5376, out_features=256, bias=True)
  (1): LeakyReLU(negative_slope=0.02)
  (2): Linear(in_features=256, out_features=128, bias=True)
  (3): LeakyReLU(negative_slope=0.02)
  (4): Linear(in_features=128, out_features=32, bias=True)
  (5): LeakyReLU(negative_slope=0.02)
  (6): Linear(in_features=32, out_features=1, bias=True)
)


Epoch: 0
Average batch loss (epoch 0: 5.295782396460957 (4533 batches).
dnn_hidden_units : 2000, 100, 16
learning_rate : 0.0001
nr_epochs : 100
batch_size : 200
eval_freq : 100
data_dir : dataloader/
neg_slope : 0.02
optimizer : Adam
amsgrad : True
weightdecay : 1e-05
momentum : 0
Training started
Device : cuda
ModuleList(
  (0): Linear(in_features=5376, out_features=2000, bias=True)
  (1): LeakyReLU(negative_slope=0.02)
  (2): Linear(in_features=2000, out_features=100, bias=True)
  (3): LeakyReLU(negative_slope=0.02)
  (4): Linear(in_features=100, out_features=16, bias=True)
  (5): LeakyReLU(negative_slope=0.02)
  (6): Linear(in_features=16, out_features=1, bias=True)
)


Epoch: 0
Average batch loss (epoch 0: 5.297680414146392 (4533 batches).
dnn_hidden_units : 300, 32
learning_rate : 0.0001
nr_epochs : 100
batch_size : 200
eval_freq : 100
data_dir : dataloader/
neg_slope : 0.02
optimizer : Adam
amsgrad : True
weightdecay : 1e-05
momentum : 0
Training started
Device : cuda
ModuleList(
  (0): Linear(in_features=5376, out_features=300, bias=True)
  (1): LeakyReLU(negative_slope=0.02)
  (2): Linear(in_features=300, out_features=32, bias=True)
  (3): LeakyReLU(negative_slope=0.02)
  (4): Linear(in_features=32, out_features=1, bias=True)
)


Epoch: 0
Average batch loss (epoch 0: 5.297161407970893 (4533 batches).
dnn_hidden_units : 256, 128, 32
learning_rate : 0.001
nr_epochs : 100
batch_size : 200
eval_freq : 100
data_dir : dataloader/
neg_slope : 0.02
optimizer : Adam
amsgrad : True
weightdecay : 0.01
momentum : 0
Training started
Device : cuda
ModuleList(
  (0): Linear(in_features=5376, out_features=256, bias=True)
  (1): LeakyReLU(negative_slope=0.02)
  (2): Linear(in_features=256, out_features=128, bias=True)
  (3): LeakyReLU(negative_slope=0.02)
  (4): Linear(in_features=128, out_features=32, bias=True)
  (5): LeakyReLU(negative_slope=0.02)
  (6): Linear(in_features=32, out_features=1, bias=True)
)


Epoch: 0
Average batch loss (epoch 0: 5.337986516026821 (4533 batches).
dnn_hidden_units : 2000, 100, 16
learning_rate : 0.001
nr_epochs : 100
batch_size : 200
eval_freq : 100
data_dir : dataloader/
neg_slope : 0.02
optimizer : Adam
amsgrad : True
weightdecay : 0.01
momentum : 0
Training started
Device : cuda
ModuleList(
  (0): Linear(in_features=5376, out_features=2000, bias=True)
  (1): LeakyReLU(negative_slope=0.02)
  (2): Linear(in_features=2000, out_features=100, bias=True)
  (3): LeakyReLU(negative_slope=0.02)
  (4): Linear(in_features=100, out_features=16, bias=True)
  (5): LeakyReLU(negative_slope=0.02)
  (6): Linear(in_features=16, out_features=1, bias=True)
)


Epoch: 0
Average batch loss (epoch 0: 5.358010348120773 (4533 batches).
dnn_hidden_units : 300, 32
learning_rate : 0.001
nr_epochs : 100
batch_size : 200
eval_freq : 100
data_dir : dataloader/
neg_slope : 0.02
optimizer : Adam
amsgrad : True
weightdecay : 0.01
momentum : 0
Training started
Device : cuda
ModuleList(
  (0): Linear(in_features=5376, out_features=300, bias=True)
  (1): LeakyReLU(negative_slope=0.02)
  (2): Linear(in_features=300, out_features=32, bias=True)
  (3): LeakyReLU(negative_slope=0.02)
  (4): Linear(in_features=32, out_features=1, bias=True)
)


Epoch: 0
Average batch loss (epoch 0: 5.347550996994041 (4533 batches).
dnn_hidden_units : 256, 128, 32
learning_rate : 0.01
nr_epochs : 100
batch_size : 200
eval_freq : 100
data_dir : dataloader/
neg_slope : 0.02
optimizer : Adam
amsgrad : True
weightdecay : 0.01
momentum : 0
Training started
Device : cuda
ModuleList(
  (0): Linear(in_features=5376, out_features=256, bias=True)
  (1): LeakyReLU(negative_slope=0.02)
  (2): Linear(in_features=256, out_features=128, bias=True)
  (3): LeakyReLU(negative_slope=0.02)
  (4): Linear(in_features=128, out_features=32, bias=True)
  (5): LeakyReLU(negative_slope=0.02)
  (6): Linear(in_features=32, out_features=1, bias=True)
)


Epoch: 0
Average batch loss (epoch 0: 5.5369108949648 (4533 batches).
dnn_hidden_units : 2000, 100, 16
learning_rate : 0.01
nr_epochs : 100
batch_size : 200
eval_freq : 100
data_dir : dataloader/
neg_slope : 0.02
optimizer : Adam
amsgrad : True
weightdecay : 0.01
momentum : 0
Training started
Device : cuda
ModuleList(
  (0): Linear(in_features=5376, out_features=2000, bias=True)
  (1): LeakyReLU(negative_slope=0.02)
  (2): Linear(in_features=2000, out_features=100, bias=True)
  (3): LeakyReLU(negative_slope=0.02)
  (4): Linear(in_features=100, out_features=16, bias=True)
  (5): LeakyReLU(negative_slope=0.02)
  (6): Linear(in_features=16, out_features=1, bias=True)
)


Epoch: 0
Average batch loss (epoch 0: 8.892340668300223 (4533 batches).
dnn_hidden_units : 300, 32
learning_rate : 0.01
nr_epochs : 100
batch_size : 200
eval_freq : 100
data_dir : dataloader/
neg_slope : 0.02
optimizer : Adam
amsgrad : True
weightdecay : 0.01
momentum : 0
Training started
Device : cuda
ModuleList(
  (0): Linear(in_features=5376, out_features=300, bias=True)
  (1): LeakyReLU(negative_slope=0.02)
  (2): Linear(in_features=300, out_features=32, bias=True)
  (3): LeakyReLU(negative_slope=0.02)
  (4): Linear(in_features=32, out_features=1, bias=True)
)


Epoch: 0
Average batch loss (epoch 0: 5.742516945233125 (4533 batches).
dnn_hidden_units : 256, 128, 32
learning_rate : 0.0001
nr_epochs : 100
batch_size : 200
eval_freq : 100
data_dir : dataloader/
neg_slope : 0.02
optimizer : Adam
amsgrad : True
weightdecay : 0.01
momentum : 0
Training started
Device : cuda
ModuleList(
  (0): Linear(in_features=5376, out_features=256, bias=True)
  (1): LeakyReLU(negative_slope=0.02)
  (2): Linear(in_features=256, out_features=128, bias=True)
  (3): LeakyReLU(negative_slope=0.02)
  (4): Linear(in_features=128, out_features=32, bias=True)
  (5): LeakyReLU(negative_slope=0.02)
  (6): Linear(in_features=32, out_features=1, bias=True)
)


Epoch: 0
Average batch loss (epoch 0: 5.305514015900019 (4533 batches).
dnn_hidden_units : 2000, 100, 16
learning_rate : 0.0001
nr_epochs : 100
batch_size : 200
eval_freq : 100
data_dir : dataloader/
neg_slope : 0.02
optimizer : Adam
amsgrad : True
weightdecay : 0.01
momentum : 0
Training started
Device : cuda
ModuleList(
  (0): Linear(in_features=5376, out_features=2000, bias=True)
  (1): LeakyReLU(negative_slope=0.02)
  (2): Linear(in_features=2000, out_features=100, bias=True)
  (3): LeakyReLU(negative_slope=0.02)
  (4): Linear(in_features=100, out_features=16, bias=True)
  (5): LeakyReLU(negative_slope=0.02)
  (6): Linear(in_features=16, out_features=1, bias=True)
)


Epoch: 0
Average batch loss (epoch 0: 5.31582228495221 (4533 batches).
dnn_hidden_units : 300, 32
learning_rate : 0.0001
nr_epochs : 100
batch_size : 200
eval_freq : 100
data_dir : dataloader/
neg_slope : 0.02
optimizer : Adam
amsgrad : True
weightdecay : 0.01
momentum : 0
Training started
Device : cuda
ModuleList(
  (0): Linear(in_features=5376, out_features=300, bias=True)
  (1): LeakyReLU(negative_slope=0.02)
  (2): Linear(in_features=300, out_features=32, bias=True)
  (3): LeakyReLU(negative_slope=0.02)
  (4): Linear(in_features=32, out_features=1, bias=True)
)


Epoch: 0
Average batch loss (epoch 0: 5.304248297448561 (4533 batches).
dnn_hidden_units : 256, 128, 32
learning_rate : 0.001
nr_epochs : 100
batch_size : 200
eval_freq : 100
data_dir : dataloader/
neg_slope : 0.02
optimizer : AdamW
amsgrad : True
weightdecay : 1e-05
momentum : 0
Training started
Device : cuda
ModuleList(
  (0): Linear(in_features=5376, out_features=256, bias=True)
  (1): LeakyReLU(negative_slope=0.02)
  (2): Linear(in_features=256, out_features=128, bias=True)
  (3): LeakyReLU(negative_slope=0.02)
  (4): Linear(in_features=128, out_features=32, bias=True)
  (5): LeakyReLU(negative_slope=0.02)
  (6): Linear(in_features=32, out_features=1, bias=True)
)


Epoch: 0
Average batch loss (epoch 0: 5.303581454147442 (4533 batches).
dnn_hidden_units : 2000, 100, 16
learning_rate : 0.001
nr_epochs : 100
batch_size : 200
eval_freq : 100
data_dir : dataloader/
neg_slope : 0.02
optimizer : AdamW
amsgrad : True
weightdecay : 1e-05
momentum : 0
Training started
Device : cuda
ModuleList(
  (0): Linear(in_features=5376, out_features=2000, bias=True)
  (1): LeakyReLU(negative_slope=0.02)
  (2): Linear(in_features=2000, out_features=100, bias=True)
  (3): LeakyReLU(negative_slope=0.02)
  (4): Linear(in_features=100, out_features=16, bias=True)
  (5): LeakyReLU(negative_slope=0.02)
  (6): Linear(in_features=16, out_features=1, bias=True)
)


Epoch: 0
Average batch loss (epoch 0: 5.307586399380166 (4533 batches).
dnn_hidden_units : 300, 32
learning_rate : 0.001
nr_epochs : 100
batch_size : 200
eval_freq : 100
data_dir : dataloader/
neg_slope : 0.02
optimizer : AdamW
amsgrad : True
weightdecay : 1e-05
momentum : 0
Training started
Device : cuda
ModuleList(
  (0): Linear(in_features=5376, out_features=300, bias=True)
  (1): LeakyReLU(negative_slope=0.02)
  (2): Linear(in_features=300, out_features=32, bias=True)
  (3): LeakyReLU(negative_slope=0.02)
  (4): Linear(in_features=32, out_features=1, bias=True)
)


Epoch: 0
Average batch loss (epoch 0: 5.303636294010325 (4533 batches).
dnn_hidden_units : 256, 128, 32
learning_rate : 0.01
nr_epochs : 100
batch_size : 200
eval_freq : 100
data_dir : dataloader/
neg_slope : 0.02
optimizer : AdamW
amsgrad : True
weightdecay : 1e-05
momentum : 0
Training started
Device : cuda
ModuleList(
  (0): Linear(in_features=5376, out_features=256, bias=True)
  (1): LeakyReLU(negative_slope=0.02)
  (2): Linear(in_features=256, out_features=128, bias=True)
  (3): LeakyReLU(negative_slope=0.02)
  (4): Linear(in_features=128, out_features=32, bias=True)
  (5): LeakyReLU(negative_slope=0.02)
  (6): Linear(in_features=32, out_features=1, bias=True)
)


Epoch: 0
Average batch loss (epoch 0: 5.410367890774954 (4533 batches).
dnn_hidden_units : 2000, 100, 16
learning_rate : 0.01
nr_epochs : 100
batch_size : 200
eval_freq : 100
data_dir : dataloader/
neg_slope : 0.02
optimizer : AdamW
amsgrad : True
weightdecay : 1e-05
momentum : 0
Training started
Device : cuda
ModuleList(
  (0): Linear(in_features=5376, out_features=2000, bias=True)
  (1): LeakyReLU(negative_slope=0.02)
  (2): Linear(in_features=2000, out_features=100, bias=True)
  (3): LeakyReLU(negative_slope=0.02)
  (4): Linear(in_features=100, out_features=16, bias=True)
  (5): LeakyReLU(negative_slope=0.02)
  (6): Linear(in_features=16, out_features=1, bias=True)
)


Epoch: 0
Average batch loss (epoch 0: 322.5935064472756 (4533 batches).
dnn_hidden_units : 300, 32
learning_rate : 0.01
nr_epochs : 100
batch_size : 200
eval_freq : 100
data_dir : dataloader/
neg_slope : 0.02
optimizer : AdamW
amsgrad : True
weightdecay : 1e-05
momentum : 0
Training started
Device : cuda
ModuleList(
  (0): Linear(in_features=5376, out_features=300, bias=True)
  (1): LeakyReLU(negative_slope=0.02)
  (2): Linear(in_features=300, out_features=32, bias=True)
  (3): LeakyReLU(negative_slope=0.02)
  (4): Linear(in_features=32, out_features=1, bias=True)
)


Epoch: 0
Average batch loss (epoch 0: 5.593057774186477 (4533 batches).
dnn_hidden_units : 256, 128, 32
learning_rate : 0.0001
nr_epochs : 100
batch_size : 200
eval_freq : 100
data_dir : dataloader/
neg_slope : 0.02
optimizer : AdamW
amsgrad : True
weightdecay : 1e-05
momentum : 0
Training started
Device : cuda
ModuleList(
  (0): Linear(in_features=5376, out_features=256, bias=True)
  (1): LeakyReLU(negative_slope=0.02)
  (2): Linear(in_features=256, out_features=128, bias=True)
  (3): LeakyReLU(negative_slope=0.02)
  (4): Linear(in_features=128, out_features=32, bias=True)
  (5): LeakyReLU(negative_slope=0.02)
  (6): Linear(in_features=32, out_features=1, bias=True)
)


Epoch: 0
Average batch loss (epoch 0: 5.295731264630243 (4533 batches).
dnn_hidden_units : 2000, 100, 16
learning_rate : 0.0001
nr_epochs : 100
batch_size : 200
eval_freq : 100
data_dir : dataloader/
neg_slope : 0.02
optimizer : AdamW
amsgrad : True
weightdecay : 1e-05
momentum : 0
Training started
Device : cuda
ModuleList(
  (0): Linear(in_features=5376, out_features=2000, bias=True)
  (1): LeakyReLU(negative_slope=0.02)
  (2): Linear(in_features=2000, out_features=100, bias=True)
  (3): LeakyReLU(negative_slope=0.02)
  (4): Linear(in_features=100, out_features=16, bias=True)
  (5): LeakyReLU(negative_slope=0.02)
  (6): Linear(in_features=16, out_features=1, bias=True)
)


Epoch: 0
Average batch loss (epoch 0: 5.297695612804847 (4533 batches).
dnn_hidden_units : 300, 32
learning_rate : 0.0001
nr_epochs : 100
batch_size : 200
eval_freq : 100
data_dir : dataloader/
neg_slope : 0.02
optimizer : AdamW
amsgrad : True
weightdecay : 1e-05
momentum : 0
Training started
Device : cuda
ModuleList(
  (0): Linear(in_features=5376, out_features=300, bias=True)
  (1): LeakyReLU(negative_slope=0.02)
  (2): Linear(in_features=300, out_features=32, bias=True)
  (3): LeakyReLU(negative_slope=0.02)
  (4): Linear(in_features=32, out_features=1, bias=True)
)


Epoch: 0
Average batch loss (epoch 0: 5.296847081528893 (4533 batches).
dnn_hidden_units : 256, 128, 32
learning_rate : 0.001
nr_epochs : 100
batch_size : 200
eval_freq : 100
data_dir : dataloader/
neg_slope : 0.02
optimizer : AdamW
amsgrad : True
weightdecay : 0.01
momentum : 0
Training started
Device : cuda
ModuleList(
  (0): Linear(in_features=5376, out_features=256, bias=True)
  (1): LeakyReLU(negative_slope=0.02)
  (2): Linear(in_features=256, out_features=128, bias=True)
  (3): LeakyReLU(negative_slope=0.02)
  (4): Linear(in_features=128, out_features=32, bias=True)
  (5): LeakyReLU(negative_slope=0.02)
  (6): Linear(in_features=32, out_features=1, bias=True)
)


Epoch: 0
Average batch loss (epoch 0: 5.304433012269018 (4533 batches).
dnn_hidden_units : 2000, 100, 16
learning_rate : 0.001
nr_epochs : 100
batch_size : 200
eval_freq : 100
data_dir : dataloader/
neg_slope : 0.02
optimizer : AdamW
amsgrad : True
weightdecay : 0.01
momentum : 0
Training started
Device : cuda
ModuleList(
  (0): Linear(in_features=5376, out_features=2000, bias=True)
  (1): LeakyReLU(negative_slope=0.02)
  (2): Linear(in_features=2000, out_features=100, bias=True)
  (3): LeakyReLU(negative_slope=0.02)
  (4): Linear(in_features=100, out_features=16, bias=True)
  (5): LeakyReLU(negative_slope=0.02)
  (6): Linear(in_features=16, out_features=1, bias=True)
)


Epoch: 0
Average batch loss (epoch 0: 5.307576951143259 (4533 batches).
dnn_hidden_units : 300, 32
learning_rate : 0.001
nr_epochs : 100
batch_size : 200
eval_freq : 100
data_dir : dataloader/
neg_slope : 0.02
optimizer : AdamW
amsgrad : True
weightdecay : 0.01
momentum : 0
Training started
Device : cuda
ModuleList(
  (0): Linear(in_features=5376, out_features=300, bias=True)
  (1): LeakyReLU(negative_slope=0.02)
  (2): Linear(in_features=300, out_features=32, bias=True)
  (3): LeakyReLU(negative_slope=0.02)
  (4): Linear(in_features=32, out_features=1, bias=True)
)


Epoch: 0
Average batch loss (epoch 0: 5.303585279074668 (4533 batches).
dnn_hidden_units : 256, 128, 32
learning_rate : 0.01
nr_epochs : 100
batch_size : 200
eval_freq : 100
data_dir : dataloader/
neg_slope : 0.02
optimizer : AdamW
amsgrad : True
weightdecay : 0.01
momentum : 0
Training started
Device : cuda
ModuleList(
  (0): Linear(in_features=5376, out_features=256, bias=True)
  (1): LeakyReLU(negative_slope=0.02)
  (2): Linear(in_features=256, out_features=128, bias=True)
  (3): LeakyReLU(negative_slope=0.02)
  (4): Linear(in_features=128, out_features=32, bias=True)
  (5): LeakyReLU(negative_slope=0.02)
  (6): Linear(in_features=32, out_features=1, bias=True)
)


Epoch: 0
Average batch loss (epoch 0: 5.487225913775301 (4533 batches).
dnn_hidden_units : 2000, 100, 16
learning_rate : 0.01
nr_epochs : 100
batch_size : 200
eval_freq : 100
data_dir : dataloader/
neg_slope : 0.02
optimizer : AdamW
amsgrad : True
weightdecay : 0.01
momentum : 0
Training started
Device : cuda
ModuleList(
  (0): Linear(in_features=5376, out_features=2000, bias=True)
  (1): LeakyReLU(negative_slope=0.02)
  (2): Linear(in_features=2000, out_features=100, bias=True)
  (3): LeakyReLU(negative_slope=0.02)
  (4): Linear(in_features=100, out_features=16, bias=True)
  (5): LeakyReLU(negative_slope=0.02)
  (6): Linear(in_features=16, out_features=1, bias=True)
)


Epoch: 0
Average batch loss (epoch 0: 9.264659792414939 (4533 batches).
dnn_hidden_units : 300, 32
learning_rate : 0.01
nr_epochs : 100
batch_size : 200
eval_freq : 100
data_dir : dataloader/
neg_slope : 0.02
optimizer : AdamW
amsgrad : True
weightdecay : 0.01
momentum : 0
Training started
Device : cuda
ModuleList(
  (0): Linear(in_features=5376, out_features=300, bias=True)
  (1): LeakyReLU(negative_slope=0.02)
  (2): Linear(in_features=300, out_features=32, bias=True)
  (3): LeakyReLU(negative_slope=0.02)
  (4): Linear(in_features=32, out_features=1, bias=True)
)


Epoch: 0
Average batch loss (epoch 0: 5.502935849572291 (4533 batches).
dnn_hidden_units : 256, 128, 32
learning_rate : 0.0001
nr_epochs : 100
batch_size : 200
eval_freq : 100
data_dir : dataloader/
neg_slope : 0.02
optimizer : AdamW
amsgrad : True
weightdecay : 0.01
momentum : 0
Training started
Device : cuda
ModuleList(
  (0): Linear(in_features=5376, out_features=256, bias=True)
  (1): LeakyReLU(negative_slope=0.02)
  (2): Linear(in_features=256, out_features=128, bias=True)
  (3): LeakyReLU(negative_slope=0.02)
  (4): Linear(in_features=128, out_features=32, bias=True)
  (5): LeakyReLU(negative_slope=0.02)
  (6): Linear(in_features=32, out_features=1, bias=True)
)


Epoch: 0
Average batch loss (epoch 0: 5.295775857451418 (4533 batches).
dnn_hidden_units : 2000, 100, 16
learning_rate : 0.0001
nr_epochs : 100
batch_size : 200
eval_freq : 100
data_dir : dataloader/
neg_slope : 0.02
optimizer : AdamW
amsgrad : True
weightdecay : 0.01
momentum : 0
Training started
Device : cuda
ModuleList(
  (0): Linear(in_features=5376, out_features=2000, bias=True)
  (1): LeakyReLU(negative_slope=0.02)
  (2): Linear(in_features=2000, out_features=100, bias=True)
  (3): LeakyReLU(negative_slope=0.02)
  (4): Linear(in_features=100, out_features=16, bias=True)
  (5): LeakyReLU(negative_slope=0.02)
  (6): Linear(in_features=16, out_features=1, bias=True)
)


Epoch: 0
Average batch loss (epoch 0: 5.2974463246422525 (4533 batches).
dnn_hidden_units : 300, 32
learning_rate : 0.0001
nr_epochs : 100
batch_size : 200
eval_freq : 100
data_dir : dataloader/
neg_slope : 0.02
optimizer : AdamW
amsgrad : True
weightdecay : 0.01
momentum : 0
Training started
Device : cuda
ModuleList(
  (0): Linear(in_features=5376, out_features=300, bias=True)
  (1): LeakyReLU(negative_slope=0.02)
  (2): Linear(in_features=300, out_features=32, bias=True)
  (3): LeakyReLU(negative_slope=0.02)
  (4): Linear(in_features=32, out_features=1, bias=True)
)


Epoch: 0
Average batch loss (epoch 0: 5.2976554024437785 (4533 batches).
dnn_hidden_units : 256, 128, 32
learning_rate : 0.001
nr_epochs : 100
batch_size : 200
eval_freq : 100
data_dir : dataloader/
neg_slope : 0.02
optimizer : SGD
amsgrad : True
weightdecay : 1e-05
momentum : 0
Training started
Device : cuda
ModuleList(
  (0): Linear(in_features=5376, out_features=256, bias=True)
  (1): LeakyReLU(negative_slope=0.02)
  (2): Linear(in_features=256, out_features=128, bias=True)
  (3): LeakyReLU(negative_slope=0.02)
  (4): Linear(in_features=128, out_features=32, bias=True)
  (5): LeakyReLU(negative_slope=0.02)
  (6): Linear(in_features=32, out_features=1, bias=True)
)


Epoch: 0
Average batch loss (epoch 0: 5.363722923626154 (4533 batches).
dnn_hidden_units : 2000, 100, 16
learning_rate : 0.001
nr_epochs : 100
batch_size : 200
eval_freq : 100
data_dir : dataloader/
neg_slope : 0.02
optimizer : SGD
amsgrad : True
weightdecay : 1e-05
momentum : 0
Training started
Device : cuda
ModuleList(
  (0): Linear(in_features=5376, out_features=2000, bias=True)
  (1): LeakyReLU(negative_slope=0.02)
  (2): Linear(in_features=2000, out_features=100, bias=True)
  (3): LeakyReLU(negative_slope=0.02)
  (4): Linear(in_features=100, out_features=16, bias=True)
  (5): LeakyReLU(negative_slope=0.02)
  (6): Linear(in_features=16, out_features=1, bias=True)
)


Epoch: 0
Average batch loss (epoch 0: 5.352328101162771 (4533 batches).
dnn_hidden_units : 300, 32
learning_rate : 0.001
nr_epochs : 100
batch_size : 200
eval_freq : 100
data_dir : dataloader/
neg_slope : 0.02
optimizer : SGD
amsgrad : True
weightdecay : 1e-05
momentum : 0
Training started
Device : cuda
ModuleList(
  (0): Linear(in_features=5376, out_features=300, bias=True)
  (1): LeakyReLU(negative_slope=0.02)
  (2): Linear(in_features=300, out_features=32, bias=True)
  (3): LeakyReLU(negative_slope=0.02)
  (4): Linear(in_features=32, out_features=1, bias=True)
)


Epoch: 0
Average batch loss (epoch 0: 5.335182066866296 (4533 batches).
dnn_hidden_units : 256, 128, 32
learning_rate : 0.01
nr_epochs : 100
batch_size : 200
eval_freq : 100
data_dir : dataloader/
neg_slope : 0.02
optimizer : SGD
amsgrad : True
weightdecay : 1e-05
momentum : 0
Training started
Device : cuda
ModuleList(
  (0): Linear(in_features=5376, out_features=256, bias=True)
  (1): LeakyReLU(negative_slope=0.02)
  (2): Linear(in_features=256, out_features=128, bias=True)
  (3): LeakyReLU(negative_slope=0.02)
  (4): Linear(in_features=128, out_features=32, bias=True)
  (5): LeakyReLU(negative_slope=0.02)
  (6): Linear(in_features=32, out_features=1, bias=True)
)


Epoch: 0
Average batch loss (epoch 0: 5.309505282320409 (4533 batches).
dnn_hidden_units : 2000, 100, 16
learning_rate : 0.01
nr_epochs : 100
batch_size : 200
eval_freq : 100
data_dir : dataloader/
neg_slope : 0.02
optimizer : SGD
amsgrad : True
weightdecay : 1e-05
momentum : 0
Training started
Device : cuda
ModuleList(
  (0): Linear(in_features=5376, out_features=2000, bias=True)
  (1): LeakyReLU(negative_slope=0.02)
  (2): Linear(in_features=2000, out_features=100, bias=True)
  (3): LeakyReLU(negative_slope=0.02)
  (4): Linear(in_features=100, out_features=16, bias=True)
  (5): LeakyReLU(negative_slope=0.02)
  (6): Linear(in_features=16, out_features=1, bias=True)
)


Epoch: 0
Average batch loss (epoch 0: 5.306405152754886 (4533 batches).
dnn_hidden_units : 300, 32
learning_rate : 0.01
nr_epochs : 100
batch_size : 200
eval_freq : 100
data_dir : dataloader/
neg_slope : 0.02
optimizer : SGD
amsgrad : True
weightdecay : 1e-05
momentum : 0
Training started
Device : cuda
ModuleList(
  (0): Linear(in_features=5376, out_features=300, bias=True)
  (1): LeakyReLU(negative_slope=0.02)
  (2): Linear(in_features=300, out_features=32, bias=True)
  (3): LeakyReLU(negative_slope=0.02)
  (4): Linear(in_features=32, out_features=1, bias=True)
)


Epoch: 0
Average batch loss (epoch 0: 5.310813466839356 (4533 batches).
dnn_hidden_units : 256, 128, 32
learning_rate : 0.0001
nr_epochs : 100
batch_size : 200
eval_freq : 100
data_dir : dataloader/
neg_slope : 0.02
optimizer : SGD
amsgrad : True
weightdecay : 1e-05
momentum : 0
Training started
Device : cuda
ModuleList(
  (0): Linear(in_features=5376, out_features=256, bias=True)
  (1): LeakyReLU(negative_slope=0.02)
  (2): Linear(in_features=256, out_features=128, bias=True)
  (3): LeakyReLU(negative_slope=0.02)
  (4): Linear(in_features=128, out_features=32, bias=True)
  (5): LeakyReLU(negative_slope=0.02)
  (6): Linear(in_features=32, out_features=1, bias=True)
)


Epoch: 0
Average batch loss (epoch 0: 5.604365652752927 (4533 batches).
dnn_hidden_units : 2000, 100, 16
learning_rate : 0.0001
nr_epochs : 100
batch_size : 200
eval_freq : 100
data_dir : dataloader/
neg_slope : 0.02
optimizer : SGD
amsgrad : True
weightdecay : 1e-05
momentum : 0
Training started
Device : cuda
ModuleList(
  (0): Linear(in_features=5376, out_features=2000, bias=True)
  (1): LeakyReLU(negative_slope=0.02)
  (2): Linear(in_features=2000, out_features=100, bias=True)
  (3): LeakyReLU(negative_slope=0.02)
  (4): Linear(in_features=100, out_features=16, bias=True)
  (5): LeakyReLU(negative_slope=0.02)
  (6): Linear(in_features=16, out_features=1, bias=True)
)


Epoch: 0
Average batch loss (epoch 0: 5.5854004144852665 (4533 batches).
dnn_hidden_units : 300, 32
learning_rate : 0.0001
nr_epochs : 100
batch_size : 200
eval_freq : 100
data_dir : dataloader/
neg_slope : 0.02
optimizer : SGD
amsgrad : True
weightdecay : 1e-05
momentum : 0
Training started
Device : cuda
ModuleList(
  (0): Linear(in_features=5376, out_features=300, bias=True)
  (1): LeakyReLU(negative_slope=0.02)
  (2): Linear(in_features=300, out_features=32, bias=True)
  (3): LeakyReLU(negative_slope=0.02)
  (4): Linear(in_features=32, out_features=1, bias=True)
)


Epoch: 0
Average batch loss (epoch 0: 5.517559508351125 (4533 batches).
dnn_hidden_units : 256, 128, 32
learning_rate : 0.001
nr_epochs : 100
batch_size : 200
eval_freq : 100
data_dir : dataloader/
neg_slope : 0.02
optimizer : SGD
amsgrad : True
weightdecay : 0.01
momentum : 0
Training started
Device : cuda
ModuleList(
  (0): Linear(in_features=5376, out_features=256, bias=True)
  (1): LeakyReLU(negative_slope=0.02)
  (2): Linear(in_features=256, out_features=128, bias=True)
  (3): LeakyReLU(negative_slope=0.02)
  (4): Linear(in_features=128, out_features=32, bias=True)
  (5): LeakyReLU(negative_slope=0.02)
  (6): Linear(in_features=32, out_features=1, bias=True)
)


Epoch: 0
Average batch loss (epoch 0: 5.365179862745703 (4533 batches).
dnn_hidden_units : 2000, 100, 16
learning_rate : 0.001
nr_epochs : 100
batch_size : 200
eval_freq : 100
data_dir : dataloader/
neg_slope : 0.02
optimizer : SGD
amsgrad : True
weightdecay : 0.01
momentum : 0
Training started
Device : cuda
ModuleList(
  (0): Linear(in_features=5376, out_features=2000, bias=True)
  (1): LeakyReLU(negative_slope=0.02)
  (2): Linear(in_features=2000, out_features=100, bias=True)
  (3): LeakyReLU(negative_slope=0.02)
  (4): Linear(in_features=100, out_features=16, bias=True)
  (5): LeakyReLU(negative_slope=0.02)
  (6): Linear(in_features=16, out_features=1, bias=True)
)


Epoch: 0
Average batch loss (epoch 0: 5.353751216507 (4533 batches).
dnn_hidden_units : 300, 32
learning_rate : 0.001
nr_epochs : 100
batch_size : 200
eval_freq : 100
data_dir : dataloader/
neg_slope : 0.02
optimizer : SGD
amsgrad : True
weightdecay : 0.01
momentum : 0
Training started
Device : cuda
ModuleList(
  (0): Linear(in_features=5376, out_features=300, bias=True)
  (1): LeakyReLU(negative_slope=0.02)
  (2): Linear(in_features=300, out_features=32, bias=True)
  (3): LeakyReLU(negative_slope=0.02)
  (4): Linear(in_features=32, out_features=1, bias=True)
)


Epoch: 0
Average batch loss (epoch 0: 5.33604361572172 (4533 batches).
dnn_hidden_units : 256, 128, 32
learning_rate : 0.01
nr_epochs : 100
batch_size : 200
eval_freq : 100
data_dir : dataloader/
neg_slope : 0.02
optimizer : SGD
amsgrad : True
weightdecay : 0.01
momentum : 0
Training started
Device : cuda
ModuleList(
  (0): Linear(in_features=5376, out_features=256, bias=True)
  (1): LeakyReLU(negative_slope=0.02)
  (2): Linear(in_features=256, out_features=128, bias=True)
  (3): LeakyReLU(negative_slope=0.02)
  (4): Linear(in_features=128, out_features=32, bias=True)
  (5): LeakyReLU(negative_slope=0.02)
  (6): Linear(in_features=32, out_features=1, bias=True)
)


Epoch: 0
Average batch loss (epoch 0: 5.3122134001187185 (4533 batches).
dnn_hidden_units : 2000, 100, 16
learning_rate : 0.01
nr_epochs : 100
batch_size : 200
eval_freq : 100
data_dir : dataloader/
neg_slope : 0.02
optimizer : SGD
amsgrad : True
weightdecay : 0.01
momentum : 0
Training started
Device : cuda
ModuleList(
  (0): Linear(in_features=5376, out_features=2000, bias=True)
  (1): LeakyReLU(negative_slope=0.02)
  (2): Linear(in_features=2000, out_features=100, bias=True)
  (3): LeakyReLU(negative_slope=0.02)
  (4): Linear(in_features=100, out_features=16, bias=True)
  (5): LeakyReLU(negative_slope=0.02)
  (6): Linear(in_features=16, out_features=1, bias=True)
)


Epoch: 0
Average batch loss (epoch 0: 5.30949481721485 (4533 batches).
dnn_hidden_units : 300, 32
learning_rate : 0.01
nr_epochs : 100
batch_size : 200
eval_freq : 100
data_dir : dataloader/
neg_slope : 0.02
optimizer : SGD
amsgrad : True
weightdecay : 0.01
momentum : 0
Training started
Device : cuda
ModuleList(
  (0): Linear(in_features=5376, out_features=300, bias=True)
  (1): LeakyReLU(negative_slope=0.02)
  (2): Linear(in_features=300, out_features=32, bias=True)
  (3): LeakyReLU(negative_slope=0.02)
  (4): Linear(in_features=32, out_features=1, bias=True)
)


Epoch: 0
Average batch loss (epoch 0: 5.312858193645987 (4533 batches).
dnn_hidden_units : 256, 128, 32
learning_rate : 0.0001
nr_epochs : 100
batch_size : 200
eval_freq : 100
data_dir : dataloader/
neg_slope : 0.02
optimizer : SGD
amsgrad : True
weightdecay : 0.01
momentum : 0
Training started
Device : cuda
ModuleList(
  (0): Linear(in_features=5376, out_features=256, bias=True)
  (1): LeakyReLU(negative_slope=0.02)
  (2): Linear(in_features=256, out_features=128, bias=True)
  (3): LeakyReLU(negative_slope=0.02)
  (4): Linear(in_features=128, out_features=32, bias=True)
  (5): LeakyReLU(negative_slope=0.02)
  (6): Linear(in_features=32, out_features=1, bias=True)
)


Epoch: 0
Average batch loss (epoch 0: 5.604745989567182 (4533 batches).
dnn_hidden_units : 2000, 100, 16
learning_rate : 0.0001
nr_epochs : 100
batch_size : 200
eval_freq : 100
data_dir : dataloader/
neg_slope : 0.02
optimizer : SGD
amsgrad : True
weightdecay : 0.01
momentum : 0
Training started
Device : cuda
ModuleList(
  (0): Linear(in_features=5376, out_features=2000, bias=True)
  (1): LeakyReLU(negative_slope=0.02)
  (2): Linear(in_features=2000, out_features=100, bias=True)
  (3): LeakyReLU(negative_slope=0.02)
  (4): Linear(in_features=100, out_features=16, bias=True)
  (5): LeakyReLU(negative_slope=0.02)
  (6): Linear(in_features=16, out_features=1, bias=True)
)


Epoch: 0
Average batch loss (epoch 0: 5.585750660319321 (4533 batches).
dnn_hidden_units : 300, 32
learning_rate : 0.0001
nr_epochs : 100
batch_size : 200
eval_freq : 100
data_dir : dataloader/
neg_slope : 0.02
optimizer : SGD
amsgrad : True
weightdecay : 0.01
momentum : 0
Training started
Device : cuda
ModuleList(
  (0): Linear(in_features=5376, out_features=300, bias=True)
  (1): LeakyReLU(negative_slope=0.02)
  (2): Linear(in_features=300, out_features=32, bias=True)
  (3): LeakyReLU(negative_slope=0.02)
  (4): Linear(in_features=32, out_features=1, bias=True)
)


Epoch: 0
Average batch loss (epoch 0: 5.5179197397514494 (4533 batches).
dnn_hidden_units : 256, 128, 32
learning_rate : 0.001
nr_epochs : 100
batch_size : 200
eval_freq : 100
data_dir : dataloader/
neg_slope : 0.02
optimizer : RMSprop
amsgrad : True
weightdecay : 1e-05
momentum : 0
Training started
Device : cuda
ModuleList(
  (0): Linear(in_features=5376, out_features=256, bias=True)
  (1): LeakyReLU(negative_slope=0.02)
  (2): Linear(in_features=256, out_features=128, bias=True)
  (3): LeakyReLU(negative_slope=0.02)
  (4): Linear(in_features=128, out_features=32, bias=True)
  (5): LeakyReLU(negative_slope=0.02)
  (6): Linear(in_features=32, out_features=1, bias=True)
)


Epoch: 0
Average batch loss (epoch 0: 5.3973058758128065 (4533 batches).
dnn_hidden_units : 2000, 100, 16
learning_rate : 0.001
nr_epochs : 100
batch_size : 200
eval_freq : 100
data_dir : dataloader/
neg_slope : 0.02
optimizer : RMSprop
amsgrad : True
weightdecay : 1e-05
momentum : 0
Training started
Device : cuda
ModuleList(
  (0): Linear(in_features=5376, out_features=2000, bias=True)
  (1): LeakyReLU(negative_slope=0.02)
  (2): Linear(in_features=2000, out_features=100, bias=True)
  (3): LeakyReLU(negative_slope=0.02)
  (4): Linear(in_features=100, out_features=16, bias=True)
  (5): LeakyReLU(negative_slope=0.02)
  (6): Linear(in_features=16, out_features=1, bias=True)
)


Epoch: 0
Average batch loss (epoch 0: 9.42983876245321 (4533 batches).
dnn_hidden_units : 300, 32
learning_rate : 0.001
nr_epochs : 100
batch_size : 200
eval_freq : 100
data_dir : dataloader/
neg_slope : 0.02
optimizer : RMSprop
amsgrad : True
weightdecay : 1e-05
momentum : 0
Training started
Device : cuda
ModuleList(
  (0): Linear(in_features=5376, out_features=300, bias=True)
  (1): LeakyReLU(negative_slope=0.02)
  (2): Linear(in_features=300, out_features=32, bias=True)
  (3): LeakyReLU(negative_slope=0.02)
  (4): Linear(in_features=32, out_features=1, bias=True)
)


Epoch: 0
Average batch loss (epoch 0: 5.505330005926511 (4533 batches).
dnn_hidden_units : 256, 128, 32
learning_rate : 0.01
nr_epochs : 100
batch_size : 200
eval_freq : 100
data_dir : dataloader/
neg_slope : 0.02
optimizer : RMSprop
amsgrad : True
weightdecay : 1e-05
momentum : 0
Training started
Device : cuda
ModuleList(
  (0): Linear(in_features=5376, out_features=256, bias=True)
  (1): LeakyReLU(negative_slope=0.02)
  (2): Linear(in_features=256, out_features=128, bias=True)
  (3): LeakyReLU(negative_slope=0.02)
  (4): Linear(in_features=128, out_features=32, bias=True)
  (5): LeakyReLU(negative_slope=0.02)
  (6): Linear(in_features=32, out_features=1, bias=True)
)


Epoch: 0
Average batch loss (epoch 0: 26514.14373895596 (4533 batches).
dnn_hidden_units : 2000, 100, 16
learning_rate : 0.01
nr_epochs : 100
batch_size : 200
eval_freq : 100
data_dir : dataloader/
neg_slope : 0.02
optimizer : RMSprop
amsgrad : True
weightdecay : 1e-05
momentum : 0
Training started
Device : cuda
ModuleList(
  (0): Linear(in_features=5376, out_features=2000, bias=True)
  (1): LeakyReLU(negative_slope=0.02)
  (2): Linear(in_features=2000, out_features=100, bias=True)
  (3): LeakyReLU(negative_slope=0.02)
  (4): Linear(in_features=100, out_features=16, bias=True)
  (5): LeakyReLU(negative_slope=0.02)
  (6): Linear(in_features=16, out_features=1, bias=True)
)


Epoch: 0
Average batch loss (epoch 0: 1113915.3971249745 (4533 batches).
dnn_hidden_units : 300, 32
learning_rate : 0.01
nr_epochs : 100
batch_size : 200
eval_freq : 100
data_dir : dataloader/
neg_slope : 0.02
optimizer : RMSprop
amsgrad : True
weightdecay : 1e-05
momentum : 0
Training started
Device : cuda
ModuleList(
  (0): Linear(in_features=5376, out_features=300, bias=True)
  (1): LeakyReLU(negative_slope=0.02)
  (2): Linear(in_features=300, out_features=32, bias=True)
  (3): LeakyReLU(negative_slope=0.02)
  (4): Linear(in_features=32, out_features=1, bias=True)
)


Epoch: 0
Average batch loss (epoch 0: 2979.7333543122986 (4533 batches).
dnn_hidden_units : 256, 128, 32
learning_rate : 0.0001
nr_epochs : 100
batch_size : 200
eval_freq : 100
data_dir : dataloader/
neg_slope : 0.02
optimizer : RMSprop
amsgrad : True
weightdecay : 1e-05
momentum : 0
Training started
Device : cuda
ModuleList(
  (0): Linear(in_features=5376, out_features=256, bias=True)
  (1): LeakyReLU(negative_slope=0.02)
  (2): Linear(in_features=256, out_features=128, bias=True)
  (3): LeakyReLU(negative_slope=0.02)
  (4): Linear(in_features=128, out_features=32, bias=True)
  (5): LeakyReLU(negative_slope=0.02)
  (6): Linear(in_features=32, out_features=1, bias=True)
)


Epoch: 0
Average batch loss (epoch 0: 5.294448223238667 (4533 batches).
dnn_hidden_units : 2000, 100, 16
learning_rate : 0.0001
nr_epochs : 100
batch_size : 200
eval_freq : 100
data_dir : dataloader/
neg_slope : 0.02
optimizer : RMSprop
amsgrad : True
weightdecay : 1e-05
momentum : 0
Training started
Device : cuda
ModuleList(
  (0): Linear(in_features=5376, out_features=2000, bias=True)
  (1): LeakyReLU(negative_slope=0.02)
  (2): Linear(in_features=2000, out_features=100, bias=True)
  (3): LeakyReLU(negative_slope=0.02)
  (4): Linear(in_features=100, out_features=16, bias=True)
  (5): LeakyReLU(negative_slope=0.02)
  (6): Linear(in_features=16, out_features=1, bias=True)
)


Epoch: 0
Average batch loss (epoch 0: 5.2946107729418035 (4533 batches).
dnn_hidden_units : 300, 32
learning_rate : 0.0001
nr_epochs : 100
batch_size : 200
eval_freq : 100
data_dir : dataloader/
neg_slope : 0.02
optimizer : RMSprop
amsgrad : True
weightdecay : 1e-05
momentum : 0
Training started
Device : cuda
ModuleList(
  (0): Linear(in_features=5376, out_features=300, bias=True)
  (1): LeakyReLU(negative_slope=0.02)
  (2): Linear(in_features=300, out_features=32, bias=True)
  (3): LeakyReLU(negative_slope=0.02)
  (4): Linear(in_features=32, out_features=1, bias=True)
)


Epoch: 0
Average batch loss (epoch 0: 5.296477079746504 (4533 batches).
dnn_hidden_units : 256, 128, 32
learning_rate : 0.001
nr_epochs : 100
batch_size : 200
eval_freq : 100
data_dir : dataloader/
neg_slope : 0.02
optimizer : RMSprop
amsgrad : True
weightdecay : 0.01
momentum : 0
Training started
Device : cuda
ModuleList(
  (0): Linear(in_features=5376, out_features=256, bias=True)
  (1): LeakyReLU(negative_slope=0.02)
  (2): Linear(in_features=256, out_features=128, bias=True)
  (3): LeakyReLU(negative_slope=0.02)
  (4): Linear(in_features=128, out_features=32, bias=True)
  (5): LeakyReLU(negative_slope=0.02)
  (6): Linear(in_features=32, out_features=1, bias=True)
)


Epoch: 0
Average batch loss (epoch 0: 5.414775224663473 (4533 batches).
dnn_hidden_units : 2000, 100, 16
learning_rate : 0.001
nr_epochs : 100
batch_size : 200
eval_freq : 100
data_dir : dataloader/
neg_slope : 0.02
optimizer : RMSprop
amsgrad : True
weightdecay : 0.01
momentum : 0
Training started
Device : cuda
ModuleList(
  (0): Linear(in_features=5376, out_features=2000, bias=True)
  (1): LeakyReLU(negative_slope=0.02)
  (2): Linear(in_features=2000, out_features=100, bias=True)
  (3): LeakyReLU(negative_slope=0.02)
  (4): Linear(in_features=100, out_features=16, bias=True)
  (5): LeakyReLU(negative_slope=0.02)
  (6): Linear(in_features=16, out_features=1, bias=True)
)


Epoch: 0
Average batch loss (epoch 0: 8.869372060526135 (4533 batches).
dnn_hidden_units : 300, 32
learning_rate : 0.001
nr_epochs : 100
batch_size : 200
eval_freq : 100
data_dir : dataloader/
neg_slope : 0.02
optimizer : RMSprop
amsgrad : True
weightdecay : 0.01
momentum : 0
Training started
Device : cuda
ModuleList(
  (0): Linear(in_features=5376, out_features=300, bias=True)
  (1): LeakyReLU(negative_slope=0.02)
  (2): Linear(in_features=300, out_features=32, bias=True)
  (3): LeakyReLU(negative_slope=0.02)
  (4): Linear(in_features=32, out_features=1, bias=True)
)


Epoch: 0
Average batch loss (epoch 0: 5.545879093287876 (4533 batches).
dnn_hidden_units : 256, 128, 32
learning_rate : 0.01
nr_epochs : 100
batch_size : 200
eval_freq : 100
data_dir : dataloader/
neg_slope : 0.02
optimizer : RMSprop
amsgrad : True
weightdecay : 0.01
momentum : 0
Training started
Device : cuda
ModuleList(
  (0): Linear(in_features=5376, out_features=256, bias=True)
  (1): LeakyReLU(negative_slope=0.02)
  (2): Linear(in_features=256, out_features=128, bias=True)
  (3): LeakyReLU(negative_slope=0.02)
  (4): Linear(in_features=128, out_features=32, bias=True)
  (5): LeakyReLU(negative_slope=0.02)
  (6): Linear(in_features=32, out_features=1, bias=True)
)


Epoch: 0
Average batch loss (epoch 0: 31346.27613251722 (4533 batches).
dnn_hidden_units : 2000, 100, 16
learning_rate : 0.01
nr_epochs : 100
batch_size : 200
eval_freq : 100
data_dir : dataloader/
neg_slope : 0.02
optimizer : RMSprop
amsgrad : True
weightdecay : 0.01
momentum : 0
Training started
Device : cuda
ModuleList(
  (0): Linear(in_features=5376, out_features=2000, bias=True)
  (1): LeakyReLU(negative_slope=0.02)
  (2): Linear(in_features=2000, out_features=100, bias=True)
  (3): LeakyReLU(negative_slope=0.02)
  (4): Linear(in_features=100, out_features=16, bias=True)
  (5): LeakyReLU(negative_slope=0.02)
  (6): Linear(in_features=16, out_features=1, bias=True)
)


Epoch: 0
Average batch loss (epoch 0: 1589403.182719485 (4533 batches).
dnn_hidden_units : 300, 32
learning_rate : 0.01
nr_epochs : 100
batch_size : 200
eval_freq : 100
data_dir : dataloader/
neg_slope : 0.02
optimizer : RMSprop
amsgrad : True
weightdecay : 0.01
momentum : 0
Training started
Device : cuda
ModuleList(
  (0): Linear(in_features=5376, out_features=300, bias=True)
  (1): LeakyReLU(negative_slope=0.02)
  (2): Linear(in_features=300, out_features=32, bias=True)
  (3): LeakyReLU(negative_slope=0.02)
  (4): Linear(in_features=32, out_features=1, bias=True)
)


Epoch: 0
Average batch loss (epoch 0: 5240.241784674375 (4533 batches).
dnn_hidden_units : 256, 128, 32
learning_rate : 0.0001
nr_epochs : 100
batch_size : 200
eval_freq : 100
data_dir : dataloader/
neg_slope : 0.02
optimizer : RMSprop
amsgrad : True
weightdecay : 0.01
momentum : 0
Training started
Device : cuda
ModuleList(
  (0): Linear(in_features=5376, out_features=256, bias=True)
  (1): LeakyReLU(negative_slope=0.02)
  (2): Linear(in_features=256, out_features=128, bias=True)
  (3): LeakyReLU(negative_slope=0.02)
  (4): Linear(in_features=128, out_features=32, bias=True)
  (5): LeakyReLU(negative_slope=0.02)
  (6): Linear(in_features=32, out_features=1, bias=True)
)


Epoch: 0
Average batch loss (epoch 0: 5.302920116669238 (4533 batches).
dnn_hidden_units : 2000, 100, 16
learning_rate : 0.0001
nr_epochs : 100
batch_size : 200
eval_freq : 100
data_dir : dataloader/
neg_slope : 0.02
optimizer : RMSprop
amsgrad : True
weightdecay : 0.01
momentum : 0
Training started
Device : cuda
ModuleList(
  (0): Linear(in_features=5376, out_features=2000, bias=True)
  (1): LeakyReLU(negative_slope=0.02)
  (2): Linear(in_features=2000, out_features=100, bias=True)
  (3): LeakyReLU(negative_slope=0.02)
  (4): Linear(in_features=100, out_features=16, bias=True)
  (5): LeakyReLU(negative_slope=0.02)
  (6): Linear(in_features=16, out_features=1, bias=True)
)


Epoch: 0
Average batch loss (epoch 0: 5.319195988726306 (4533 batches).
dnn_hidden_units : 300, 32
learning_rate : 0.0001
nr_epochs : 100
batch_size : 200
eval_freq : 100
data_dir : dataloader/
neg_slope : 0.02
optimizer : RMSprop
amsgrad : True
weightdecay : 0.01
momentum : 0
Training started
Device : cuda
ModuleList(
  (0): Linear(in_features=5376, out_features=300, bias=True)
  (1): LeakyReLU(negative_slope=0.02)
  (2): Linear(in_features=300, out_features=32, bias=True)
  (3): LeakyReLU(negative_slope=0.02)
  (4): Linear(in_features=32, out_features=1, bias=True)
)


Epoch: 0
Average batch loss (epoch 0: 5.304752653728067 (4533 batches).
dnn_hidden_units : 256, 128, 32
dropout_percentages : 0, 0, 0
learning_rate : 0.001
nr_epochs : 80
batch_size : 200
eval_freq : 100
data_dir : dataloader/
neg_slope : 0.02
optimizer : Adam
amsgrad : True
batchnorm : False
weightdecay : 1e-05
momentum : 0
Training started
Device : cuda
ModuleList(
  (0): Linear(in_features=5376, out_features=256, bias=True)
  (1): Dropout(p=0, inplace=False)
  (2): BatchNorm1d(256, eps=1e-05, momentum=0.1, affine=True, track_running_stats=True)
  (3): LeakyReLU(negative_slope=0.02)
  (4): Linear(in_features=256, out_features=128, bias=True)
  (5): Dropout(p=0, inplace=False)
  (6): BatchNorm1d(128, eps=1e-05, momentum=0.1, affine=True, track_running_stats=True)
  (7): LeakyReLU(negative_slope=0.02)
  (8): Linear(in_features=128, out_features=32, bias=True)
  (9): Dropout(p=0, inplace=False)
  (10): BatchNorm1d(32, eps=1e-05, momentum=0.1, affine=True, track_running_stats=True)
  (11): LeakyReLU(negative_slope=0.02)
  (12): Linear(in_features=32, out_features=1, bias=True)
)


Epoch: 0
Average batch loss (epoch 0: 5.307019337015701 (4533 batches).
dnn_hidden_units : 2000, 100, 16
dropout_percentages : 0, 0, 0
learning_rate : 0.001
nr_epochs : 80
batch_size : 200
eval_freq : 100
data_dir : dataloader/
neg_slope : 0.02
optimizer : Adam
amsgrad : True
batchnorm : False
weightdecay : 1e-05
momentum : 0
Training started
Device : cuda
ModuleList(
  (0): Linear(in_features=5376, out_features=2000, bias=True)
  (1): Dropout(p=0, inplace=False)
  (2): BatchNorm1d(2000, eps=1e-05, momentum=0.1, affine=True, track_running_stats=True)
  (3): LeakyReLU(negative_slope=0.02)
  (4): Linear(in_features=2000, out_features=100, bias=True)
  (5): Dropout(p=0, inplace=False)
  (6): BatchNorm1d(100, eps=1e-05, momentum=0.1, affine=True, track_running_stats=True)
  (7): LeakyReLU(negative_slope=0.02)
  (8): Linear(in_features=100, out_features=16, bias=True)
  (9): Dropout(p=0, inplace=False)
  (10): BatchNorm1d(16, eps=1e-05, momentum=0.1, affine=True, track_running_stats=True)
  (11): LeakyReLU(negative_slope=0.02)
  (12): Linear(in_features=16, out_features=1, bias=True)
)


Epoch: 0
Average batch loss (epoch 0: 5.311795296691097 (4533 batches).
dnn_hidden_units : 300, 32
dropout_percentages : 0, 0, 0
learning_rate : 0.001
nr_epochs : 80
batch_size : 200
eval_freq : 100
data_dir : dataloader/
neg_slope : 0.02
optimizer : Adam
amsgrad : True
batchnorm : False
weightdecay : 1e-05
momentum : 0
Training started
Device : cuda
ModuleList(
  (0): Linear(in_features=5376, out_features=300, bias=True)
  (1): Dropout(p=0, inplace=False)
  (2): BatchNorm1d(300, eps=1e-05, momentum=0.1, affine=True, track_running_stats=True)
  (3): LeakyReLU(negative_slope=0.02)
  (4): Linear(in_features=300, out_features=32, bias=True)
  (5): Dropout(p=0, inplace=False)
  (6): BatchNorm1d(32, eps=1e-05, momentum=0.1, affine=True, track_running_stats=True)
  (7): LeakyReLU(negative_slope=0.02)
  (8): Linear(in_features=32, out_features=1, bias=True)
)


Epoch: 0
Average batch loss (epoch 0: 5.315829692824692 (4533 batches).
dnn_hidden_units : 256, 128, 32
dropout_percentages : 0, 0, 0
learning_rate : 0.01
nr_epochs : 80
batch_size : 200
eval_freq : 100
data_dir : dataloader/
neg_slope : 0.02
optimizer : Adam
amsgrad : True
batchnorm : False
weightdecay : 1e-05
momentum : 0
Training started
Device : cuda
ModuleList(
  (0): Linear(in_features=5376, out_features=256, bias=True)
  (1): Dropout(p=0, inplace=False)
  (2): BatchNorm1d(256, eps=1e-05, momentum=0.1, affine=True, track_running_stats=True)
  (3): LeakyReLU(negative_slope=0.02)
  (4): Linear(in_features=256, out_features=128, bias=True)
  (5): Dropout(p=0, inplace=False)
  (6): BatchNorm1d(128, eps=1e-05, momentum=0.1, affine=True, track_running_stats=True)
  (7): LeakyReLU(negative_slope=0.02)
  (8): Linear(in_features=128, out_features=32, bias=True)
  (9): Dropout(p=0, inplace=False)
  (10): BatchNorm1d(32, eps=1e-05, momentum=0.1, affine=True, track_running_stats=True)
  (11): LeakyReLU(negative_slope=0.02)
  (12): Linear(in_features=32, out_features=1, bias=True)
)


Epoch: 0
Average batch loss (epoch 0: 5.319329312561417 (4533 batches).
dnn_hidden_units : 2000, 100, 16
dropout_percentages : 0, 0, 0
learning_rate : 0.01
nr_epochs : 80
batch_size : 200
eval_freq : 100
data_dir : dataloader/
neg_slope : 0.02
optimizer : Adam
amsgrad : True
batchnorm : False
weightdecay : 1e-05
momentum : 0
Training started
Device : cuda
ModuleList(
  (0): Linear(in_features=5376, out_features=2000, bias=True)
  (1): Dropout(p=0, inplace=False)
  (2): BatchNorm1d(2000, eps=1e-05, momentum=0.1, affine=True, track_running_stats=True)
  (3): LeakyReLU(negative_slope=0.02)
  (4): Linear(in_features=2000, out_features=100, bias=True)
  (5): Dropout(p=0, inplace=False)
  (6): BatchNorm1d(100, eps=1e-05, momentum=0.1, affine=True, track_running_stats=True)
  (7): LeakyReLU(negative_slope=0.02)
  (8): Linear(in_features=100, out_features=16, bias=True)
  (9): Dropout(p=0, inplace=False)
  (10): BatchNorm1d(16, eps=1e-05, momentum=0.1, affine=True, track_running_stats=True)
  (11): LeakyReLU(negative_slope=0.02)
  (12): Linear(in_features=16, out_features=1, bias=True)
)


Epoch: 0
Average batch loss (epoch 0: 5.325968726433956 (4533 batches).
dnn_hidden_units : 300, 32
dropout_percentages : 0, 0, 0
learning_rate : 0.01
nr_epochs : 80
batch_size : 200
eval_freq : 100
data_dir : dataloader/
neg_slope : 0.02
optimizer : Adam
amsgrad : True
batchnorm : False
weightdecay : 1e-05
momentum : 0
Training started
Device : cuda
ModuleList(
  (0): Linear(in_features=5376, out_features=300, bias=True)
  (1): Dropout(p=0, inplace=False)
  (2): BatchNorm1d(300, eps=1e-05, momentum=0.1, affine=True, track_running_stats=True)
  (3): LeakyReLU(negative_slope=0.02)
  (4): Linear(in_features=300, out_features=32, bias=True)
  (5): Dropout(p=0, inplace=False)
  (6): BatchNorm1d(32, eps=1e-05, momentum=0.1, affine=True, track_running_stats=True)
  (7): LeakyReLU(negative_slope=0.02)
  (8): Linear(in_features=32, out_features=1, bias=True)
)


Epoch: 0
Average batch loss (epoch 0: 5.317995832951527 (4533 batches).
dnn_hidden_units : 256, 128, 32
dropout_percentages : 0, 0, 0
learning_rate : 0.001
nr_epochs : 80
batch_size : 200
eval_freq : 100
data_dir : dataloader/
neg_slope : 0.02
optimizer : Adam
amsgrad : True
batchnorm : False
weightdecay : 0.01
momentum : 0
Training started
Device : cuda
ModuleList(
  (0): Linear(in_features=5376, out_features=256, bias=True)
  (1): Dropout(p=0, inplace=False)
  (2): BatchNorm1d(256, eps=1e-05, momentum=0.1, affine=True, track_running_stats=True)
  (3): LeakyReLU(negative_slope=0.02)
  (4): Linear(in_features=256, out_features=128, bias=True)
  (5): Dropout(p=0, inplace=False)
  (6): BatchNorm1d(128, eps=1e-05, momentum=0.1, affine=True, track_running_stats=True)
  (7): LeakyReLU(negative_slope=0.02)
  (8): Linear(in_features=128, out_features=32, bias=True)
  (9): Dropout(p=0, inplace=False)
  (10): BatchNorm1d(32, eps=1e-05, momentum=0.1, affine=True, track_running_stats=True)
  (11): LeakyReLU(negative_slope=0.02)
  (12): Linear(in_features=32, out_features=1, bias=True)
)


Epoch: 0
Average batch loss (epoch 0: 5.343471323894187 (4533 batches).
dnn_hidden_units : 2000, 100, 16
dropout_percentages : 0, 0, 0
learning_rate : 0.001
nr_epochs : 80
batch_size : 200
eval_freq : 100
data_dir : dataloader/
neg_slope : 0.02
optimizer : Adam
amsgrad : True
batchnorm : False
weightdecay : 0.01
momentum : 0
Training started
Device : cuda
ModuleList(
  (0): Linear(in_features=5376, out_features=2000, bias=True)
  (1): Dropout(p=0, inplace=False)
  (2): BatchNorm1d(2000, eps=1e-05, momentum=0.1, affine=True, track_running_stats=True)
  (3): LeakyReLU(negative_slope=0.02)
  (4): Linear(in_features=2000, out_features=100, bias=True)
  (5): Dropout(p=0, inplace=False)
  (6): BatchNorm1d(100, eps=1e-05, momentum=0.1, affine=True, track_running_stats=True)
  (7): LeakyReLU(negative_slope=0.02)
  (8): Linear(in_features=100, out_features=16, bias=True)
  (9): Dropout(p=0, inplace=False)
  (10): BatchNorm1d(16, eps=1e-05, momentum=0.1, affine=True, track_running_stats=True)
  (11): LeakyReLU(negative_slope=0.02)
  (12): Linear(in_features=16, out_features=1, bias=True)
)


Epoch: 0
Average batch loss (epoch 0: 5.369240474706188 (4533 batches).
dnn_hidden_units : 300, 32
dropout_percentages : 0, 0, 0
learning_rate : 0.001
nr_epochs : 80
batch_size : 200
eval_freq : 100
data_dir : dataloader/
neg_slope : 0.02
optimizer : Adam
amsgrad : True
batchnorm : False
weightdecay : 0.01
momentum : 0
Training started
Device : cuda
ModuleList(
  (0): Linear(in_features=5376, out_features=300, bias=True)
  (1): Dropout(p=0, inplace=False)
  (2): BatchNorm1d(300, eps=1e-05, momentum=0.1, affine=True, track_running_stats=True)
  (3): LeakyReLU(negative_slope=0.02)
  (4): Linear(in_features=300, out_features=32, bias=True)
  (5): Dropout(p=0, inplace=False)
  (6): BatchNorm1d(32, eps=1e-05, momentum=0.1, affine=True, track_running_stats=True)
  (7): LeakyReLU(negative_slope=0.02)
  (8): Linear(in_features=32, out_features=1, bias=True)
)


Epoch: 0
Average batch loss (epoch 0: 5.353712302708032 (4533 batches).
dnn_hidden_units : 256, 128, 32
dropout_percentages : 0, 0, 0
learning_rate : 0.01
nr_epochs : 80
batch_size : 200
eval_freq : 100
data_dir : dataloader/
neg_slope : 0.02
optimizer : Adam
amsgrad : True
batchnorm : False
weightdecay : 0.01
momentum : 0
Training started
Device : cuda
ModuleList(
  (0): Linear(in_features=5376, out_features=256, bias=True)
  (1): Dropout(p=0, inplace=False)
  (2): BatchNorm1d(256, eps=1e-05, momentum=0.1, affine=True, track_running_stats=True)
  (3): LeakyReLU(negative_slope=0.02)
  (4): Linear(in_features=256, out_features=128, bias=True)
  (5): Dropout(p=0, inplace=False)
  (6): BatchNorm1d(128, eps=1e-05, momentum=0.1, affine=True, track_running_stats=True)
  (7): LeakyReLU(negative_slope=0.02)
  (8): Linear(in_features=128, out_features=32, bias=True)
  (9): Dropout(p=0, inplace=False)
  (10): BatchNorm1d(32, eps=1e-05, momentum=0.1, affine=True, track_running_stats=True)
  (11): LeakyReLU(negative_slope=0.02)
  (12): Linear(in_features=32, out_features=1, bias=True)
)


Epoch: 0
Average batch loss (epoch 0: 5.387197083007308 (4533 batches).
dnn_hidden_units : 2000, 100, 16
dropout_percentages : 0, 0, 0
learning_rate : 0.01
nr_epochs : 80
batch_size : 200
eval_freq : 100
data_dir : dataloader/
neg_slope : 0.02
optimizer : Adam
amsgrad : True
batchnorm : False
weightdecay : 0.01
momentum : 0
Training started
Device : cuda
ModuleList(
  (0): Linear(in_features=5376, out_features=2000, bias=True)
  (1): Dropout(p=0, inplace=False)
  (2): BatchNorm1d(2000, eps=1e-05, momentum=0.1, affine=True, track_running_stats=True)
  (3): LeakyReLU(negative_slope=0.02)
  (4): Linear(in_features=2000, out_features=100, bias=True)
  (5): Dropout(p=0, inplace=False)
  (6): BatchNorm1d(100, eps=1e-05, momentum=0.1, affine=True, track_running_stats=True)
  (7): LeakyReLU(negative_slope=0.02)
  (8): Linear(in_features=100, out_features=16, bias=True)
  (9): Dropout(p=0, inplace=False)
  (10): BatchNorm1d(16, eps=1e-05, momentum=0.1, affine=True, track_running_stats=True)
  (11): LeakyReLU(negative_slope=0.02)
  (12): Linear(in_features=16, out_features=1, bias=True)
)


Epoch: 0
Average batch loss (epoch 0: 5.386399897405072 (4533 batches).
dnn_hidden_units : 300, 32
dropout_percentages : 0, 0, 0
learning_rate : 0.01
nr_epochs : 80
batch_size : 200
eval_freq : 100
data_dir : dataloader/
neg_slope : 0.02
optimizer : Adam
amsgrad : True
batchnorm : False
weightdecay : 0.01
momentum : 0
Training started
Device : cuda
ModuleList(
  (0): Linear(in_features=5376, out_features=300, bias=True)
  (1): Dropout(p=0, inplace=False)
  (2): BatchNorm1d(300, eps=1e-05, momentum=0.1, affine=True, track_running_stats=True)
  (3): LeakyReLU(negative_slope=0.02)
  (4): Linear(in_features=300, out_features=32, bias=True)
  (5): Dropout(p=0, inplace=False)
  (6): BatchNorm1d(32, eps=1e-05, momentum=0.1, affine=True, track_running_stats=True)
  (7): LeakyReLU(negative_slope=0.02)
  (8): Linear(in_features=32, out_features=1, bias=True)
)


Epoch: 0
Average batch loss (epoch 0: 5.391162905647295 (4533 batches).
dnn_hidden_units : 256, 128, 32
dropout_percentages : 0, 0, 0
learning_rate : 0.001
nr_epochs : 80
batch_size : 200
eval_freq : 100
data_dir : dataloader/
neg_slope : 0.02
optimizer : SGD
amsgrad : True
batchnorm : False
weightdecay : 1e-05
momentum : 0
Training started
Device : cuda
ModuleList(
  (0): Linear(in_features=5376, out_features=256, bias=True)
  (1): Dropout(p=0, inplace=False)
  (2): BatchNorm1d(256, eps=1e-05, momentum=0.1, affine=True, track_running_stats=True)
  (3): LeakyReLU(negative_slope=0.02)
  (4): Linear(in_features=256, out_features=128, bias=True)
  (5): Dropout(p=0, inplace=False)
  (6): BatchNorm1d(128, eps=1e-05, momentum=0.1, affine=True, track_running_stats=True)
  (7): LeakyReLU(negative_slope=0.02)
  (8): Linear(in_features=128, out_features=32, bias=True)
  (9): Dropout(p=0, inplace=False)
  (10): BatchNorm1d(32, eps=1e-05, momentum=0.1, affine=True, track_running_stats=True)
  (11): LeakyReLU(negative_slope=0.02)
  (12): Linear(in_features=32, out_features=1, bias=True)
)


Epoch: 0
Average batch loss (epoch 0: 5.306234086714332 (4533 batches).
dnn_hidden_units : 2000, 100, 16
dropout_percentages : 0, 0, 0
learning_rate : 0.001
nr_epochs : 80
batch_size : 200
eval_freq : 100
data_dir : dataloader/
neg_slope : 0.02
optimizer : SGD
amsgrad : True
batchnorm : False
weightdecay : 1e-05
momentum : 0
Training started
Device : cuda
ModuleList(
  (0): Linear(in_features=5376, out_features=2000, bias=True)
  (1): Dropout(p=0, inplace=False)
  (2): BatchNorm1d(2000, eps=1e-05, momentum=0.1, affine=True, track_running_stats=True)
  (3): LeakyReLU(negative_slope=0.02)
  (4): Linear(in_features=2000, out_features=100, bias=True)
  (5): Dropout(p=0, inplace=False)
  (6): BatchNorm1d(100, eps=1e-05, momentum=0.1, affine=True, track_running_stats=True)
  (7): LeakyReLU(negative_slope=0.02)
  (8): Linear(in_features=100, out_features=16, bias=True)
  (9): Dropout(p=0, inplace=False)
  (10): BatchNorm1d(16, eps=1e-05, momentum=0.1, affine=True, track_running_stats=True)
  (11): LeakyReLU(negative_slope=0.02)
  (12): Linear(in_features=16, out_features=1, bias=True)
)


Epoch: 0
Average batch loss (epoch 0: 5.311448280881788 (4533 batches).
dnn_hidden_units : 300, 32
dropout_percentages : 0, 0, 0
learning_rate : 0.001
nr_epochs : 80
batch_size : 200
eval_freq : 100
data_dir : dataloader/
neg_slope : 0.02
optimizer : SGD
amsgrad : True
batchnorm : False
weightdecay : 1e-05
momentum : 0
Training started
Device : cuda
ModuleList(
  (0): Linear(in_features=5376, out_features=300, bias=True)
  (1): Dropout(p=0, inplace=False)
  (2): BatchNorm1d(300, eps=1e-05, momentum=0.1, affine=True, track_running_stats=True)
  (3): LeakyReLU(negative_slope=0.02)
  (4): Linear(in_features=300, out_features=32, bias=True)
  (5): Dropout(p=0, inplace=False)
  (6): BatchNorm1d(32, eps=1e-05, momentum=0.1, affine=True, track_running_stats=True)
  (7): LeakyReLU(negative_slope=0.02)
  (8): Linear(in_features=32, out_features=1, bias=True)
)


Epoch: 0
Average batch loss (epoch 0: 5.314024798369897 (4533 batches).
dnn_hidden_units : 256, 128, 32
dropout_percentages : 0, 0, 0
learning_rate : 0.01
nr_epochs : 80
batch_size : 200
eval_freq : 100
data_dir : dataloader/
neg_slope : 0.02
optimizer : SGD
amsgrad : True
batchnorm : False
weightdecay : 1e-05
momentum : 0
Training started
Device : cuda
ModuleList(
  (0): Linear(in_features=5376, out_features=256, bias=True)
  (1): Dropout(p=0, inplace=False)
  (2): BatchNorm1d(256, eps=1e-05, momentum=0.1, affine=True, track_running_stats=True)
  (3): LeakyReLU(negative_slope=0.02)
  (4): Linear(in_features=256, out_features=128, bias=True)
  (5): Dropout(p=0, inplace=False)
  (6): BatchNorm1d(128, eps=1e-05, momentum=0.1, affine=True, track_running_stats=True)
  (7): LeakyReLU(negative_slope=0.02)
  (8): Linear(in_features=128, out_features=32, bias=True)
  (9): Dropout(p=0, inplace=False)
  (10): BatchNorm1d(32, eps=1e-05, momentum=0.1, affine=True, track_running_stats=True)
  (11): LeakyReLU(negative_slope=0.02)
  (12): Linear(in_features=32, out_features=1, bias=True)
)


Epoch: 0
Average batch loss (epoch 0: 5.307192044912415 (4533 batches).
dnn_hidden_units : 2000, 100, 16
dropout_percentages : 0, 0, 0
learning_rate : 0.01
nr_epochs : 80
batch_size : 200
eval_freq : 100
data_dir : dataloader/
neg_slope : 0.02
optimizer : SGD
amsgrad : True
batchnorm : False
weightdecay : 1e-05
momentum : 0
Training started
Device : cuda
ModuleList(
  (0): Linear(in_features=5376, out_features=2000, bias=True)
  (1): Dropout(p=0, inplace=False)
  (2): BatchNorm1d(2000, eps=1e-05, momentum=0.1, affine=True, track_running_stats=True)
  (3): LeakyReLU(negative_slope=0.02)
  (4): Linear(in_features=2000, out_features=100, bias=True)
  (5): Dropout(p=0, inplace=False)
  (6): BatchNorm1d(100, eps=1e-05, momentum=0.1, affine=True, track_running_stats=True)
  (7): LeakyReLU(negative_slope=0.02)
  (8): Linear(in_features=100, out_features=16, bias=True)
  (9): Dropout(p=0, inplace=False)
  (10): BatchNorm1d(16, eps=1e-05, momentum=0.1, affine=True, track_running_stats=True)
  (11): LeakyReLU(negative_slope=0.02)
  (12): Linear(in_features=16, out_features=1, bias=True)
)


Epoch: 0
Average batch loss (epoch 0: 5.296719334232289 (4533 batches).
dnn_hidden_units : 300, 32
dropout_percentages : 0, 0, 0
learning_rate : 0.01
nr_epochs : 80
batch_size : 200
eval_freq : 100
data_dir : dataloader/
neg_slope : 0.02
optimizer : SGD
amsgrad : True
batchnorm : False
weightdecay : 1e-05
momentum : 0
Training started
Device : cuda
ModuleList(
  (0): Linear(in_features=5376, out_features=300, bias=True)
  (1): Dropout(p=0, inplace=False)
  (2): BatchNorm1d(300, eps=1e-05, momentum=0.1, affine=True, track_running_stats=True)
  (3): LeakyReLU(negative_slope=0.02)
  (4): Linear(in_features=300, out_features=32, bias=True)
  (5): Dropout(p=0, inplace=False)
  (6): BatchNorm1d(32, eps=1e-05, momentum=0.1, affine=True, track_running_stats=True)
  (7): LeakyReLU(negative_slope=0.02)
  (8): Linear(in_features=32, out_features=1, bias=True)
)


Epoch: 0
Average batch loss (epoch 0: 5.305016849547487 (4533 batches).
dnn_hidden_units : 256, 128, 32
dropout_percentages : 0, 0, 0
learning_rate : 0.001
nr_epochs : 80
batch_size : 200
eval_freq : 100
data_dir : dataloader/
neg_slope : 0.02
optimizer : SGD
amsgrad : True
batchnorm : False
weightdecay : 0.01
momentum : 0
Training started
Device : cuda
ModuleList(
  (0): Linear(in_features=5376, out_features=256, bias=True)
  (1): Dropout(p=0, inplace=False)
  (2): BatchNorm1d(256, eps=1e-05, momentum=0.1, affine=True, track_running_stats=True)
  (3): LeakyReLU(negative_slope=0.02)
  (4): Linear(in_features=256, out_features=128, bias=True)
  (5): Dropout(p=0, inplace=False)
  (6): BatchNorm1d(128, eps=1e-05, momentum=0.1, affine=True, track_running_stats=True)
  (7): LeakyReLU(negative_slope=0.02)
  (8): Linear(in_features=128, out_features=32, bias=True)
  (9): Dropout(p=0, inplace=False)
  (10): BatchNorm1d(32, eps=1e-05, momentum=0.1, affine=True, track_running_stats=True)
  (11): LeakyReLU(negative_slope=0.02)
  (12): Linear(in_features=32, out_features=1, bias=True)
)


Epoch: 0
Average batch loss (epoch 0: 5.305981876306809 (4533 batches).
dnn_hidden_units : 2000, 100, 16
dropout_percentages : 0, 0, 0
learning_rate : 0.001
nr_epochs : 80
batch_size : 200
eval_freq : 100
data_dir : dataloader/
neg_slope : 0.02
optimizer : SGD
amsgrad : True
batchnorm : False
weightdecay : 0.01
momentum : 0
Training started
Device : cuda
ModuleList(
  (0): Linear(in_features=5376, out_features=2000, bias=True)
  (1): Dropout(p=0, inplace=False)
  (2): BatchNorm1d(2000, eps=1e-05, momentum=0.1, affine=True, track_running_stats=True)
  (3): LeakyReLU(negative_slope=0.02)
  (4): Linear(in_features=2000, out_features=100, bias=True)
  (5): Dropout(p=0, inplace=False)
  (6): BatchNorm1d(100, eps=1e-05, momentum=0.1, affine=True, track_running_stats=True)
  (7): LeakyReLU(negative_slope=0.02)
  (8): Linear(in_features=100, out_features=16, bias=True)
  (9): Dropout(p=0, inplace=False)
  (10): BatchNorm1d(16, eps=1e-05, momentum=0.1, affine=True, track_running_stats=True)
  (11): LeakyReLU(negative_slope=0.02)
  (12): Linear(in_features=16, out_features=1, bias=True)
)


Epoch: 0
Average batch loss (epoch 0: 5.312292382466249 (4533 batches).
dnn_hidden_units : 300, 32
dropout_percentages : 0, 0, 0
learning_rate : 0.001
nr_epochs : 80
batch_size : 200
eval_freq : 100
data_dir : dataloader/
neg_slope : 0.02
optimizer : SGD
amsgrad : True
batchnorm : False
weightdecay : 0.01
momentum : 0
Training started
Device : cuda
ModuleList(
  (0): Linear(in_features=5376, out_features=300, bias=True)
  (1): Dropout(p=0, inplace=False)
  (2): BatchNorm1d(300, eps=1e-05, momentum=0.1, affine=True, track_running_stats=True)
  (3): LeakyReLU(negative_slope=0.02)
  (4): Linear(in_features=300, out_features=32, bias=True)
  (5): Dropout(p=0, inplace=False)
  (6): BatchNorm1d(32, eps=1e-05, momentum=0.1, affine=True, track_running_stats=True)
  (7): LeakyReLU(negative_slope=0.02)
  (8): Linear(in_features=32, out_features=1, bias=True)
)


Epoch: 0
Average batch loss (epoch 0: 5.312210463265196 (4533 batches).
dnn_hidden_units : 256, 128, 32
dropout_percentages : 0, 0, 0
learning_rate : 0.001
nr_epochs : 80
batch_size : 200
eval_freq : 100
data_dir : dataloader/
neg_slope : 0.02
optimizer : Adam
amsgrad : True
batchnorm : False
weightdecay : 1e-05
momentum : 0
Training started
Device : cuda
ModuleList(
  (0): Linear(in_features=5376, out_features=256, bias=True)
  (1): Dropout(p=0, inplace=False)
  (2): BatchNorm1d(256, eps=1e-05, momentum=0.1, affine=True, track_running_stats=True)
  (3): LeakyReLU(negative_slope=0.02)
  (4): Linear(in_features=256, out_features=128, bias=True)
  (5): Dropout(p=0, inplace=False)
  (6): BatchNorm1d(128, eps=1e-05, momentum=0.1, affine=True, track_running_stats=True)
  (7): LeakyReLU(negative_slope=0.02)
  (8): Linear(in_features=128, out_features=32, bias=True)
  (9): Dropout(p=0, inplace=False)
  (10): BatchNorm1d(32, eps=1e-05, momentum=0.1, affine=True, track_running_stats=True)
  (11): LeakyReLU(negative_slope=0.02)
  (12): Linear(in_features=32, out_features=1, bias=True)
)


Epoch: 0
Average batch loss (epoch 0: 5.307019337015701 (4533 batches).


Epoch: 1
Average batch loss (epoch 1: 5.228065745314567 (4533 batches).


Epoch: 2
Average batch loss (epoch 2: 5.176544272108055 (4533 batches).


Epoch: 3
Average batch loss (epoch 3: 5.113108773566018 (4533 batches).


Epoch: 4
Average batch loss (epoch 4: 5.029875712075981 (4533 batches).
…
Average batch loss (epoch 76: 0.8621468406450846 (4533 batches).


Epoch: 77
Average batch loss (epoch 77: 0.8630000539904736 (4533 batches).


Epoch: 78
Average batch loss (epoch 78: 0.8608022892834097 (4533 batches).


Epoch: 79
Average batch loss (epoch 79: 0.863535102395172 (4533 batches).
Loss on test set: 6.987314744786302
dnn_hidden_units : 2000, 100, 16
dropout_percentages : 0, 0, 0
learning_rate : 0.001
nr_epochs : 80
batch_size : 200
eval_freq : 100
data_dir : dataloader/
neg_slope : 0.02
optimizer : Adam
amsgrad : True
batchnorm : False
weightdecay : 1e-05
momentum : 0
Training started
Device : cuda
ModuleList(
  (0): Linear(in_features=5376, out_features=2000, bias=True)
  (1): Dropout(p=0, inplace=False)
  (2): BatchNorm1d(2000, eps=1e-05, momentum=0.1, affine=True, track_running_stats=True)
  (3): LeakyReLU(negative_slope=0.02)
  (4): Linear(in_features=2000, out_features=100, bias=True)
  (5): Dropout(p=0, inplace=False)
  (6): BatchNorm1d(100, eps=1e-05, momentum=0.1, affine=True, track_running_stats=True)
  (7): LeakyReLU(negative_slope=0.02)
  (8): Linear(in_features=100, out_features=16, bias=True)
  (9): Dropout(p=0, inplace=False)
  (10): BatchNorm1d(16, eps=1e-05, momentum=0.1, affine=True, track_running_stats=True)
  (11): LeakyReLU(negative_slope=0.02)
  (12): Linear(in_features=16, out_features=1, bias=True)
)


Epoch: 0
Average batch loss (epoch 0: 5.311795296691097 (4533 batches).


Epoch: 1
Average batch loss (epoch 1: 5.236857711493036 (4533 batches).


Epoch: 2
Average batch loss (epoch 2: 5.190446648065444 (4533 batches).


Epoch: 3
Average batch loss (epoch 3: 5.135961659494257 (4533 batches).


Epoch: 4
Average batch loss (epoch 4: 5.068674097202115 (4533 batches).
…
Average batch loss (epoch 76: 0.6452714942827962 (4533 batches).


Epoch: 77
Average batch loss (epoch 77: 0.6356181245672763 (4533 batches).


Epoch: 78
Average batch loss (epoch 78: 0.6265202527908913 (4533 batches).


Epoch: 79
Average batch loss (epoch 79: 0.624234823544978 (4533 batches).
Loss on test set: 7.372337054764328
dnn_hidden_units : 300, 32
dropout_percentages : 0, 0, 0
learning_rate : 0.001
nr_epochs : 80
batch_size : 200
eval_freq : 100
data_dir : dataloader/
neg_slope : 0.02
optimizer : Adam
amsgrad : True
batchnorm : False
weightdecay : 1e-05
momentum : 0
Training started
Device : cuda
ModuleList(
  (0): Linear(in_features=5376, out_features=300, bias=True)
  (1): Dropout(p=0, inplace=False)
  (2): BatchNorm1d(300, eps=1e-05, momentum=0.1, affine=True, track_running_stats=True)
  (3): LeakyReLU(negative_slope=0.02)
  (4): Linear(in_features=300, out_features=32, bias=True)
  (5): Dropout(p=0, inplace=False)
  (6): BatchNorm1d(32, eps=1e-05, momentum=0.1, affine=True, track_running_stats=True)
  (7): LeakyReLU(negative_slope=0.02)
  (8): Linear(in_features=32, out_features=1, bias=True)
)


Epoch: 0
Average batch loss (epoch 0: 5.315829692824692 (4533 batches).


Epoch: 1
Average batch loss (epoch 1: 5.22672370921006 (4533 batches).


Epoch: 2
Average batch loss (epoch 2: 5.173901211208206 (4533 batches).


Epoch: 3
Average batch loss (epoch 3: 5.105730865140006 (4533 batches).


Epoch: 4
Average batch loss (epoch 4: 5.017184539002192 (4533 batches).
…
Average batch loss (epoch 76: 0.8136997272669546 (4533 batches).


Epoch: 77
Average batch loss (epoch 77: 0.8017706204573103 (4533 batches).


Epoch: 78
Average batch loss (epoch 78: 0.7916130780180953 (4533 batches).


Epoch: 79
Average batch loss (epoch 79: 0.8119039108770035 (4533 batches).
Loss on test set: 7.122160956984813
dnn_hidden_units : 256, 128, 32
dropout_percentages : 0, 0, 0
learning_rate : 0.01
nr_epochs : 80
batch_size : 200
eval_freq : 100
data_dir : dataloader/
neg_slope : 0.02
optimizer : Adam
amsgrad : True
batchnorm : False
weightdecay : 1e-05
momentum : 0
Training started
Device : cuda
ModuleList(
  (0): Linear(in_features=5376, out_features=256, bias=True)
  (1): Dropout(p=0, inplace=False)
  (2): BatchNorm1d(256, eps=1e-05, momentum=0.1, affine=True, track_running_stats=True)
  (3): LeakyReLU(negative_slope=0.02)
  (4): Linear(in_features=256, out_features=128, bias=True)
  (5): Dropout(p=0, inplace=False)
  (6): BatchNorm1d(128, eps=1e-05, momentum=0.1, affine=True, track_running_stats=True)
  (7): LeakyReLU(negative_slope=0.02)
  (8): Linear(in_features=128, out_features=32, bias=True)
  (9): Dropout(p=0, inplace=False)
  (10): BatchNorm1d(32, eps=1e-05, momentum=0.1, affine=True, track_running_stats=True)
  (11): LeakyReLU(negative_slope=0.02)
  (12): Linear(in_features=32, out_features=1, bias=True)
)


Epoch: 0
Average batch loss (epoch 0: 5.319329312561417 (4533 batches).


Epoch: 1
Average batch loss (epoch 1: 5.26716556302922 (4533 batches).


Epoch: 2
Average batch loss (epoch 2: 5.254060587029885 (4533 batches).


Epoch: 3
Average batch loss (epoch 3: 5.238181354692906 (4533 batches).


Epoch: 4
Average batch loss (epoch 4: 5.222235472844501 (4533 batches).
…
