…
             https://userinfo.surfsara.nl/documentation/software-policy-lisacartesius

             If you have any question, please contact us via http://servicedesk.surfsara.nl.'
********************************************************************************************
Training regression with following parameters:
dnn_hidden_units : 2000, 100, 16
dropout_probs : 0.0, 0.0
learning_rate : 0.001
nr_epochs : 80
batch_size : 64
eval_freq : 100
data_dir : Data/
neg_slope : 0.02
optimizer : Adam
amsgrad : False
batchnorm : True
weightdecay : 0
momentum : 0
embedder : Bert
verbose : False
Training started
Device : cuda
ModuleList(
  (0): Linear(in_features=5376, out_features=2000, bias=True)
  (1): Dropout(p=0.0, inplace=False)
  (2): BatchNorm1d(2000, eps=1e-05, momentum=0.1, affine=True, track_running_stats=True)
  (3): LeakyReLU(negative_slope=0.02)
  (4): Linear(in_features=2000, out_features=100, bias=True)
  (5): Dropout(p=0.0, inplace=False)
  (6): BatchNorm1d(100, eps=1e-05, momentum=0.1, affine=True, track_running_stats=True)
  (7): LeakyReLU(negative_slope=0.02)
  (8): Linear(in_features=100, out_features=16, bias=True)
  (9): Dropout(p=0, inplace=False)
  (10): BatchNorm1d(16, eps=1e-05, momentum=0.1, affine=True, track_running_stats=True)
  (11): LeakyReLU(negative_slope=0.02)
  (12): Linear(in_features=16, out_features=1, bias=True)
)
neural net:
 [tensor([[ 0.0035, -0.0035,  0.0052,  ..., -0.0130,  0.0056, -0.0088],
        [ 0.0045, -0.0089, -0.0107,  ...,  0.0052,  0.0048, -0.0076],
        [ 0.0014, -0.0062,  0.0084,  ..., -0.0093,  0.0089,  0.0006],
        ...,
        [ 0.0115,  0.0001, -0.0032,  ..., -0.0018, -0.0062, -0.0085],
        [-0.0009,  0.0057,  0.0107,  ..., -0.0067, -0.0022, -0.0107],
…
Training loss: 0.2694767713546753 / Valid loss: 6.734313583374023
Training loss: 0.1732800155878067 / Valid loss: 6.716629364376977
Training loss: 0.15089979767799377 / Valid loss: 6.769556488309588
Training loss: 0.18094484508037567 / Valid loss: 6.845108091263544
Training loss: 0.3911951184272766 / Valid loss: 6.6995929400126135

Epoch: 79
Training loss: 0.14435258507728577 / Valid loss: 6.638266211464291
Training loss: 0.2574714720249176 / Valid loss: 6.759087135678246
Training loss: 0.13571076095104218 / Valid loss: 6.740478238605317
Training loss: 0.26609545946121216 / Valid loss: 6.730795751299177
ModuleList(
  (0): Linear(in_features=5376, out_features=2000, bias=True)
  (1): Dropout(p=0.0, inplace=False)
  (2): BatchNorm1d(2000, eps=1e-05, momentum=0.1, affine=True, track_running_stats=True)
  (3): LeakyReLU(negative_slope=0.02)
  (4): Linear(in_features=2000, out_features=100, bias=True)
  (5): Dropout(p=0.0, inplace=False)
  (6): BatchNorm1d(100, eps=1e-05, momentum=0.1, affine=True, track_running_stats=True)
  (7): LeakyReLU(negative_slope=0.02)
  (8): Linear(in_features=100, out_features=16, bias=True)
  (9): Dropout(p=0, inplace=False)
  (10): BatchNorm1d(16, eps=1e-05, momentum=0.1, affine=True, track_running_stats=True)
  (11): LeakyReLU(negative_slope=0.02)
  (12): Linear(in_features=16, out_features=1, bias=True)
)
Loss on test set of optimal model: 5.325703477859497
Training regression with following parameters:
dnn_hidden_units : 2000, 100, 16
dropout_probs : 0.0, 0.0
learning_rate : 0.0001
nr_epochs : 80
batch_size : 64
eval_freq : 100
data_dir : Data/
neg_slope : 0.02
optimizer : Adam
amsgrad : False
batchnorm : True
weightdecay : 0
momentum : 0
embedder : Bert
verbose : False
Training started
Device : cuda
ModuleList(
  (0): Linear(in_features=5376, out_features=2000, bias=True)
  (1): Dropout(p=0.0, inplace=False)
  (2): BatchNorm1d(2000, eps=1e-05, momentum=0.1, affine=True, track_running_stats=True)
  (3): LeakyReLU(negative_slope=0.02)
  (4): Linear(in_features=2000, out_features=100, bias=True)
  (5): Dropout(p=0.0, inplace=False)
  (6): BatchNorm1d(100, eps=1e-05, momentum=0.1, affine=True, track_running_stats=True)
  (7): LeakyReLU(negative_slope=0.02)
  (8): Linear(in_features=100, out_features=16, bias=True)
  (9): Dropout(p=0, inplace=False)
  (10): BatchNorm1d(16, eps=1e-05, momentum=0.1, affine=True, track_running_stats=True)
  (11): LeakyReLU(negative_slope=0.02)
  (12): Linear(in_features=16, out_features=1, bias=True)
)
neural net:
 [tensor([[ 0.0035, -0.0035,  0.0052,  ..., -0.0130,  0.0056, -0.0088],
        [ 0.0045, -0.0089, -0.0107,  ...,  0.0052,  0.0048, -0.0076],
        [ 0.0014, -0.0062,  0.0084,  ..., -0.0093,  0.0089,  0.0006],
        ...,
        [ 0.0115,  0.0001, -0.0032,  ..., -0.0018, -0.0062, -0.0085],
        [-0.0009,  0.0057,  0.0107,  ..., -0.0067, -0.0022, -0.0107],
…
