…
             https://userinfo.surfsara.nl/documentation/software-policy-lisacartesius

             If you have any question, please contact us via http://servicedesk.surfsara.nl.'
********************************************************************************************
Training regression with following parameters:
dnn_hidden_units : 2000, 100, 16
dropout_probs : 0.0, 0.0
learning_rate : 0.001
nr_epochs : 80
batch_size : 64
eval_freq : 100
data_dir : Data/
neg_slope : 0.02
optimizer : Adam
amsgrad : False
batchnorm : True
weightdecay : 0
momentum : 0
embedder : Bert
verbose : False
reduced_classes : False
Device : cuda
ModuleList(
  (0): Linear(in_features=5376, out_features=2000, bias=True)
  (1): Dropout(p=0.0, inplace=False)
  (2): BatchNorm1d(2000, eps=1e-05, momentum=0.1, affine=True, track_running_stats=True)
  (3): LeakyReLU(negative_slope=0.02)
  (4): Linear(in_features=2000, out_features=100, bias=True)
  (5): Dropout(p=0.0, inplace=False)
  (6): BatchNorm1d(100, eps=1e-05, momentum=0.1, affine=True, track_running_stats=True)
  (7): LeakyReLU(negative_slope=0.02)
  (8): Linear(in_features=100, out_features=16, bias=True)
  (9): Dropout(p=0, inplace=False)
  (10): BatchNorm1d(16, eps=1e-05, momentum=0.1, affine=True, track_running_stats=True)
  (11): LeakyReLU(negative_slope=0.02)
  (12): Linear(in_features=16, out_features=1, bias=True)
)

Epoch: 0
Training loss: 15.765700340270996 / Valid loss: 13.399635451180595
Model is saved in epoch 0, overall batch: 0
Training loss: 6.127030372619629 / Valid loss: 8.819717675163632
Model is saved in epoch 0, overall batch: 100
Training loss: 4.364099502563477 / Valid loss: 6.371737811678932
Model is saved in epoch 0, overall batch: 200
Training loss: 6.64052152633667 / Valid loss: 5.719195552099318
…
Training loss: 0.2694767713546753 / Valid loss: 6.734313583374023
Training loss: 0.1732800155878067 / Valid loss: 6.716629364376977
Training loss: 0.15089979767799377 / Valid loss: 6.769556488309588
Training loss: 0.18094484508037567 / Valid loss: 6.845108091263544
Training loss: 0.3911951184272766 / Valid loss: 6.6995929400126135

Epoch: 79
Training loss: 0.14435258507728577 / Valid loss: 6.638266211464291
Training loss: 0.2574714720249176 / Valid loss: 6.759087135678246
Training loss: 0.13571076095104218 / Valid loss: 6.740478238605317
Training loss: 0.26609545946121216 / Valid loss: 6.730795751299177
ModuleList(
  (0): Linear(in_features=5376, out_features=2000, bias=True)
  (1): Dropout(p=0.0, inplace=False)
  (2): BatchNorm1d(2000, eps=1e-05, momentum=0.1, affine=True, track_running_stats=True)
  (3): LeakyReLU(negative_slope=0.02)
  (4): Linear(in_features=2000, out_features=100, bias=True)
  (5): Dropout(p=0.0, inplace=False)
  (6): BatchNorm1d(100, eps=1e-05, momentum=0.1, affine=True, track_running_stats=True)
  (7): LeakyReLU(negative_slope=0.02)
  (8): Linear(in_features=100, out_features=16, bias=True)
  (9): Dropout(p=0, inplace=False)
  (10): BatchNorm1d(16, eps=1e-05, momentum=0.1, affine=True, track_running_stats=True)
  (11): LeakyReLU(negative_slope=0.02)
  (12): Linear(in_features=16, out_features=1, bias=True)
)
Loss on test set of optimal model: 5.325703477859497
Training regression with following parameters:
dnn_hidden_units : 300, 32
dropout_probs : 0.0, 0.0
learning_rate : 0.001
nr_epochs : 80
batch_size : 64
eval_freq : 100
data_dir : Data/
neg_slope : 0.02
optimizer : Adam
amsgrad : False
batchnorm : True
weightdecay : 0
momentum : 0
embedder : Bert
verbose : False
reduced_classes : False
Device : cuda
ModuleList(
  (0): Linear(in_features=5376, out_features=300, bias=True)
  (1): Dropout(p=0.0, inplace=False)
  (2): BatchNorm1d(300, eps=1e-05, momentum=0.1, affine=True, track_running_stats=True)
  (3): LeakyReLU(negative_slope=0.02)
  (4): Linear(in_features=300, out_features=32, bias=True)
  (5): Dropout(p=0.0, inplace=False)
  (6): BatchNorm1d(32, eps=1e-05, momentum=0.1, affine=True, track_running_stats=True)
  (7): LeakyReLU(negative_slope=0.02)
  (8): Linear(in_features=32, out_features=1, bias=True)
)

Epoch: 0
Training loss: 13.485506057739258 / Valid loss: 14.727781214032854
Model is saved in epoch 0, overall batch: 0
Training loss: 4.084541320800781 / Valid loss: 7.065146973019554
Model is saved in epoch 0, overall batch: 100
Training loss: 4.639308452606201 / Valid loss: 5.684344668615432
Model is saved in epoch 0, overall batch: 200
Training loss: 5.593152046203613 / Valid loss: 5.590488869803292
…
Training loss: 0.41137853264808655 / Valid loss: 6.945145629701161
Training loss: 0.8287795782089233 / Valid loss: 6.840659477597192
Training loss: 0.7622877955436707 / Valid loss: 7.012321540287563
Training loss: 0.3995341956615448 / Valid loss: 6.981730851672944
Training loss: 0.30614280700683594 / Valid loss: 6.916827460697719

Epoch: 79
Training loss: 0.2953917384147644 / Valid loss: 6.852517109825498
Training loss: 0.5810561180114746 / Valid loss: 6.950403908320836
Training loss: 0.3747260868549347 / Valid loss: 6.965258784521193
Training loss: 0.4440107047557831 / Valid loss: 6.862849934895833
ModuleList(
  (0): Linear(in_features=5376, out_features=300, bias=True)
  (1): Dropout(p=0.0, inplace=False)
  (2): BatchNorm1d(300, eps=1e-05, momentum=0.1, affine=True, track_running_stats=True)
  (3): LeakyReLU(negative_slope=0.02)
  (4): Linear(in_features=300, out_features=32, bias=True)
  (5): Dropout(p=0.0, inplace=False)
  (6): BatchNorm1d(32, eps=1e-05, momentum=0.1, affine=True, track_running_stats=True)
  (7): LeakyReLU(negative_slope=0.02)
  (8): Linear(in_features=32, out_features=1, bias=True)
)
Loss on test set of optimal model: 5.326435997372582
Training regression with following parameters:
dnn_hidden_units : 248
dropout_probs : 0.0, 0.0
learning_rate : 0.001
nr_epochs : 80
batch_size : 64
eval_freq : 100
data_dir : Data/
neg_slope : 0.02
optimizer : Adam
amsgrad : False
batchnorm : True
weightdecay : 0
momentum : 0
embedder : Bert
verbose : False
reduced_classes : False
Device : cuda
ModuleList(
  (0): Linear(in_features=5376, out_features=248, bias=True)
  (1): Dropout(p=0.0, inplace=False)
  (2): BatchNorm1d(248, eps=1e-05, momentum=0.1, affine=True, track_running_stats=True)
  (3): LeakyReLU(negative_slope=0.02)
  (4): Linear(in_features=248, out_features=1, bias=True)
)

Epoch: 0
Training loss: 20.62260627746582 / Valid loss: 13.353901926676432
Model is saved in epoch 0, overall batch: 0
Training loss: 6.209975242614746 / Valid loss: 5.938352648417155
Model is saved in epoch 0, overall batch: 100
Training loss: 6.657140731811523 / Valid loss: 5.6690251191457115
Model is saved in epoch 0, overall batch: 200
Training loss: 6.0860395431518555 / Valid loss: 5.649145680382138
…
Training loss: 3.5156350135803223 / Valid loss: 6.098723388853527
Training loss: 5.323702812194824 / Valid loss: 6.147698413758051
Training loss: 3.5790646076202393 / Valid loss: 6.127887203579857
Training loss: 6.225471019744873 / Valid loss: 6.079136037826538
Training loss: 6.911253452301025 / Valid loss: 6.048519023259481

Epoch: 79
Training loss: 4.266661643981934 / Valid loss: 6.157249448412941
Training loss: 4.086951732635498 / Valid loss: 6.301396031606765
Training loss: 4.188612937927246 / Valid loss: 6.500278027852376
Training loss: 6.474842071533203 / Valid loss: 6.147324085235596
ModuleList(
  (0): Linear(in_features=5376, out_features=1, bias=True)
)
Loss on test set of optimal model: 5.451294317699614
Training regression with following parameters:
dnn_hidden_units : 2000, 100, 16
dropout_probs : 0.0, 0.0
learning_rate : 0.0001
nr_epochs : 80
batch_size : 64
eval_freq : 100
data_dir : Data/
neg_slope : 0.02
optimizer : Adam
amsgrad : False
batchnorm : True
weightdecay : 0
momentum : 0
embedder : Bert
verbose : False
reduced_classes : False
Device : cuda
ModuleList(
  (0): Linear(in_features=5376, out_features=2000, bias=True)
  (1): Dropout(p=0.0, inplace=False)
  (2): BatchNorm1d(2000, eps=1e-05, momentum=0.1, affine=True, track_running_stats=True)
  (3): LeakyReLU(negative_slope=0.02)
  (4): Linear(in_features=2000, out_features=100, bias=True)
  (5): Dropout(p=0.0, inplace=False)
  (6): BatchNorm1d(100, eps=1e-05, momentum=0.1, affine=True, track_running_stats=True)
  (7): LeakyReLU(negative_slope=0.02)
  (8): Linear(in_features=100, out_features=16, bias=True)
  (9): Dropout(p=0, inplace=False)
  (10): BatchNorm1d(16, eps=1e-05, momentum=0.1, affine=True, track_running_stats=True)
  (11): LeakyReLU(negative_slope=0.02)
  (12): Linear(in_features=16, out_features=1, bias=True)
)

Epoch: 0
Training loss: 15.765700340270996 / Valid loss: 15.114407076154436
Model is saved in epoch 0, overall batch: 0
Training loss: 8.912009239196777 / Valid loss: 12.768657457260858
Model is saved in epoch 0, overall batch: 100
Training loss: 9.925810813903809 / Valid loss: 12.196747702643984
Model is saved in epoch 0, overall batch: 200
Training loss: 15.783401489257812 / Valid loss: 11.78140204747518
…
Training loss: 3.692769765853882 / Valid loss: 5.590995675041562
Training loss: 5.6439056396484375 / Valid loss: 5.588461898622059
Training loss: 3.390575647354126 / Valid loss: 5.627602327437628
Training loss: 5.789488792419434 / Valid loss: 5.583787239165533
Training loss: 7.146523475646973 / Valid loss: 5.587610837391445

Epoch: 79
Training loss: 4.141792297363281 / Valid loss: 5.5900250434875485
Training loss: 4.347823143005371 / Valid loss: 5.592054326193673
Training loss: 3.7281417846679688 / Valid loss: 5.602218596140544
Training loss: 6.602774620056152 / Valid loss: 5.589895670754569
ModuleList(
  (0): Linear(in_features=5376, out_features=1, bias=True)
)
Loss on test set of optimal model: 5.3178695224580315
Training regression with following parameters:
dnn_hidden_units : 2000, 100, 16
dropout_probs : 0.0, 0.0
learning_rate : 0.001
nr_epochs : 80
batch_size : 64
eval_freq : 100
data_dir : Data/
neg_slope : 0.02
optimizer : Adam
amsgrad : False
batchnorm : True
weightdecay : 0
momentum : 0
embedder : TFIDF
verbose : False
reduced_classes : False
Device : cuda
ModuleList(
  (0): Linear(in_features=31191, out_features=2000, bias=True)
  (1): Dropout(p=0.0, inplace=False)
  (2): BatchNorm1d(2000, eps=1e-05, momentum=0.1, affine=True, track_running_stats=True)
  (3): LeakyReLU(negative_slope=0.02)
  (4): Linear(in_features=2000, out_features=100, bias=True)
  (5): Dropout(p=0.0, inplace=False)
  (6): BatchNorm1d(100, eps=1e-05, momentum=0.1, affine=True, track_running_stats=True)
  (7): LeakyReLU(negative_slope=0.02)
  (8): Linear(in_features=100, out_features=16, bias=True)
  (9): Dropout(p=0, inplace=False)
  (10): BatchNorm1d(16, eps=1e-05, momentum=0.1, affine=True, track_running_stats=True)
  (11): LeakyReLU(negative_slope=0.02)
  (12): Linear(in_features=16, out_features=1, bias=True)
)

Epoch: 0
Training loss: 17.8549747467041 / Valid loss: 16.974769047328405
Model is saved in epoch 0, overall batch: 0
Training loss: 13.96962833404541 / Valid loss: 11.932385876065208
Model is saved in epoch 0, overall batch: 100
Training loss: 7.026939868927002 / Valid loss: 7.509492842356364
Model is saved in epoch 0, overall batch: 200
Training loss: 5.229887962341309 / Valid loss: 5.984595482689993
…
Training loss: 0.0922926813364029 / Valid loss: 7.13927667708624
Training loss: 0.09793044626712799 / Valid loss: 7.096033636728922
Training loss: 0.05537893623113632 / Valid loss: 7.220354227792649
Training loss: 0.041442081332206726 / Valid loss: 7.165144511631557
Training loss: 0.048649054020643234 / Valid loss: 7.129175817398798

Epoch: 79
Training loss: 0.08310691267251968 / Valid loss: 7.177973220461891
Training loss: 0.06190023571252823 / Valid loss: 7.271286834989275
Training loss: 0.1997525542974472 / Valid loss: 7.2029631569272
Training loss: 0.06492969393730164 / Valid loss: 7.232073216211228
ModuleList(
  (0): Linear(in_features=31191, out_features=2000, bias=True)
  (1): Dropout(p=0.0, inplace=False)
  (2): BatchNorm1d(2000, eps=1e-05, momentum=0.1, affine=True, track_running_stats=True)
  (3): LeakyReLU(negative_slope=0.02)
  (4): Linear(in_features=2000, out_features=100, bias=True)
  (5): Dropout(p=0.0, inplace=False)
  (6): BatchNorm1d(100, eps=1e-05, momentum=0.1, affine=True, track_running_stats=True)
  (7): LeakyReLU(negative_slope=0.02)
  (8): Linear(in_features=100, out_features=16, bias=True)
  (9): Dropout(p=0, inplace=False)
  (10): BatchNorm1d(16, eps=1e-05, momentum=0.1, affine=True, track_running_stats=True)
  (11): LeakyReLU(negative_slope=0.02)
  (12): Linear(in_features=16, out_features=1, bias=True)
)
Loss on test set of optimal model: 5.597928714752197
Training regression with following parameters:
dnn_hidden_units : 300, 32
dropout_probs : 0.0, 0.0
learning_rate : 0.001
nr_epochs : 80
batch_size : 64
eval_freq : 100
data_dir : Data/
neg_slope : 0.02
optimizer : Adam
amsgrad : False
batchnorm : True
weightdecay : 0
momentum : 0
embedder : TFIDF
verbose : False
reduced_classes : False
Device : cuda
ModuleList(
  (0): Linear(in_features=31191, out_features=300, bias=True)
  (1): Dropout(p=0.0, inplace=False)
  (2): BatchNorm1d(300, eps=1e-05, momentum=0.1, affine=True, track_running_stats=True)
  (3): LeakyReLU(negative_slope=0.02)
  (4): Linear(in_features=300, out_features=32, bias=True)
  (5): Dropout(p=0.0, inplace=False)
  (6): BatchNorm1d(32, eps=1e-05, momentum=0.1, affine=True, track_running_stats=True)
  (7): LeakyReLU(negative_slope=0.02)
  (8): Linear(in_features=32, out_features=1, bias=True)
)

Epoch: 0
Training loss: 14.313697814941406 / Valid loss: 15.73991907210577
Model is saved in epoch 0, overall batch: 0
Training loss: 8.40890121459961 / Valid loss: 9.4806762332008
Model is saved in epoch 0, overall batch: 100
Training loss: 4.984809875488281 / Valid loss: 6.232872719991775
Model is saved in epoch 0, overall batch: 200
Training loss: 3.5381689071655273 / Valid loss: 5.799423308599563
…
Training loss: 0.24141480028629303 / Valid loss: 6.511668627602713
Training loss: 0.2861703336238861 / Valid loss: 6.500247769128709
Training loss: 0.09537684917449951 / Valid loss: 6.565849867321196
Training loss: 0.2470400482416153 / Valid loss: 6.497022090639387
Training loss: 0.3333859443664551 / Valid loss: 6.510926051366897

Epoch: 79
Training loss: 0.12007223814725876 / Valid loss: 6.520892944790068
Training loss: 0.1871071457862854 / Valid loss: 6.505055722736177
Training loss: 0.12893721461296082 / Valid loss: 6.540772447131929
Training loss: 0.260985404253006 / Valid loss: 6.554689741134643
ModuleList(
  (0): Linear(in_features=31191, out_features=300, bias=True)
  (1): Dropout(p=0.0, inplace=False)
  (2): BatchNorm1d(300, eps=1e-05, momentum=0.1, affine=True, track_running_stats=True)
  (3): LeakyReLU(negative_slope=0.02)
  (4): Linear(in_features=300, out_features=32, bias=True)
  (5): Dropout(p=0.0, inplace=False)
  (6): BatchNorm1d(32, eps=1e-05, momentum=0.1, affine=True, track_running_stats=True)
  (7): LeakyReLU(negative_slope=0.02)
  (8): Linear(in_features=32, out_features=1, bias=True)
)
Loss on test set of optimal model: 5.61936419804891
Training regression with following parameters:
dnn_hidden_units : 248
dropout_probs : 0.0, 0.0
learning_rate : 0.001
nr_epochs : 80
batch_size : 64
eval_freq : 100
data_dir : Data/
neg_slope : 0.02
optimizer : Adam
amsgrad : False
batchnorm : True
weightdecay : 0
momentum : 0
embedder : TFIDF
verbose : False
reduced_classes : False
Device : cuda
ModuleList(
  (0): Linear(in_features=31191, out_features=248, bias=True)
  (1): Dropout(p=0.0, inplace=False)
  (2): BatchNorm1d(248, eps=1e-05, momentum=0.1, affine=True, track_running_stats=True)
  (3): LeakyReLU(negative_slope=0.02)
  (4): Linear(in_features=248, out_features=1, bias=True)
)

Epoch: 0
Training loss: 15.220863342285156 / Valid loss: 16.406339981442407
Model is saved in epoch 0, overall batch: 0
Training loss: 7.161015033721924 / Valid loss: 6.829741114661807
Model is saved in epoch 0, overall batch: 100
Training loss: 5.48242712020874 / Valid loss: 6.842602175757999
Training loss: 5.094162940979004 / Valid loss: 6.712977336701893
…
Training loss: 2.8559749126434326 / Valid loss: 5.876999961762201
Training loss: 3.279106616973877 / Valid loss: 5.88017935979934
Training loss: 3.450700283050537 / Valid loss: 5.875813901992071
Training loss: 2.2854714393615723 / Valid loss: 5.877109945388067
Training loss: 3.29436993598938 / Valid loss: 5.878605390730359

Epoch: 79
Training loss: 3.383833885192871 / Valid loss: 5.882157232647851
Training loss: 2.4011855125427246 / Valid loss: 5.886185580208188
Training loss: 2.3659310340881348 / Valid loss: 5.8894461790720625
Training loss: 2.829115390777588 / Valid loss: 5.891521581013998
ModuleList(
  (0): Linear(in_features=31191, out_features=1, bias=True)
)
Loss on test set of optimal model: 5.361660875592913
Training regression with following parameters:
dnn_hidden_units : 2000, 100, 16
dropout_probs : 0.0, 0.0
learning_rate : 0.0001
nr_epochs : 80
batch_size : 64
eval_freq : 100
data_dir : Data/
neg_slope : 0.02
optimizer : Adam
amsgrad : False
batchnorm : True
weightdecay : 0
momentum : 0
embedder : TFIDF
verbose : False
reduced_classes : False
Device : cuda
ModuleList(
  (0): Linear(in_features=31191, out_features=2000, bias=True)
  (1): Dropout(p=0.0, inplace=False)
  (2): BatchNorm1d(2000, eps=1e-05, momentum=0.1, affine=True, track_running_stats=True)
  (3): LeakyReLU(negative_slope=0.02)
  (4): Linear(in_features=2000, out_features=100, bias=True)
  (5): Dropout(p=0.0, inplace=False)
  (6): BatchNorm1d(100, eps=1e-05, momentum=0.1, affine=True, track_running_stats=True)
  (7): LeakyReLU(negative_slope=0.02)
  (8): Linear(in_features=100, out_features=16, bias=True)
  (9): Dropout(p=0, inplace=False)
  (10): BatchNorm1d(16, eps=1e-05, momentum=0.1, affine=True, track_running_stats=True)
  (11): LeakyReLU(negative_slope=0.02)
  (12): Linear(in_features=16, out_features=1, bias=True)
)

Epoch: 0
Training loss: 17.8549747467041 / Valid loss: 16.989478783380417
Model is saved in epoch 0, overall batch: 0
Training loss: 18.9604549407959 / Valid loss: 15.762811751592727
Model is saved in epoch 0, overall batch: 100
Training loss: 14.243934631347656 / Valid loss: 14.771505800882975
Model is saved in epoch 0, overall batch: 200
Training loss: 13.741157531738281 / Valid loss: 14.510727628072102
…
Training loss: 5.8524017333984375 / Valid loss: 5.6176365375518795
Training loss: 5.541521072387695 / Valid loss: 5.618693124680292
Training loss: 6.0119218826293945 / Valid loss: 5.6117455028352285
Training loss: 3.883645534515381 / Valid loss: 5.613967650277274
Training loss: 5.071498870849609 / Valid loss: 5.610042022523426
Model is saved in epoch 78, overall batch: 38700

Epoch: 79
Training loss: 5.402289390563965 / Valid loss: 5.613137858254569
Training loss: 4.254778861999512 / Valid loss: 5.6114368143535795
Training loss: 3.59920597076416 / Valid loss: 5.613035124824161
Training loss: 4.095914363861084 / Valid loss: 5.612387850171044
ModuleList(
  (0): Linear(in_features=31191, out_features=1, bias=True)
)
Loss on test set of optimal model: 5.487976326261248
Training regression with following parameters:
dnn_hidden_units : 2000, 100, 16
dropout_probs : 0.0, 0.0
learning_rate : 0.001
nr_epochs : 80
batch_size : 64
eval_freq : 100
data_dir : Data/
neg_slope : 0.02
optimizer : SGD
amsgrad : False
batchnorm : True
weightdecay : 0
momentum : 0
embedder : Bert
verbose : False
reduced_classes : False
Device : cuda
ModuleList(
  (0): Linear(in_features=5376, out_features=2000, bias=True)
  (1): Dropout(p=0.0, inplace=False)
  (2): BatchNorm1d(2000, eps=1e-05, momentum=0.1, affine=True, track_running_stats=True)
  (3): LeakyReLU(negative_slope=0.02)
  (4): Linear(in_features=2000, out_features=100, bias=True)
  (5): Dropout(p=0.0, inplace=False)
  (6): BatchNorm1d(100, eps=1e-05, momentum=0.1, affine=True, track_running_stats=True)
  (7): LeakyReLU(negative_slope=0.02)
  (8): Linear(in_features=100, out_features=16, bias=True)
  (9): Dropout(p=0, inplace=False)
  (10): BatchNorm1d(16, eps=1e-05, momentum=0.1, affine=True, track_running_stats=True)
  (11): LeakyReLU(negative_slope=0.02)
  (12): Linear(in_features=16, out_features=1, bias=True)
)

Epoch: 0
Training loss: 15.765700340270996 / Valid loss: 15.266402771359399
Model is saved in epoch 0, overall batch: 0
Training loss: 5.042430877685547 / Valid loss: 7.500886340368361
Model is saved in epoch 0, overall batch: 100
Training loss: 4.23737907409668 / Valid loss: 5.921776885078067
Model is saved in epoch 0, overall batch: 200
Training loss: 6.29364538192749 / Valid loss: 5.682949795041766
…
