…
             https://userinfo.surfsara.nl/documentation/software-policy-lisacartesius

             If you have any question, please contact us via http://servicedesk.surfsara.nl.'
********************************************************************************************
Training regression with following parameters:
dnn_hidden_units : 2000, 100, 16
dropout_probs : 0.3, 0.2, 0.1
learning_rate : 0.001
nr_epochs : 40
batch_size : 64
eval_freq : 100
data_dir : Data/
neg_slope : 0.02
optimizer : Adam
amsgrad : False
batchnorm : True
weightdecay : 0.0
momentum : 0
embedder : Bert
verbose : False
reduced_classes : False
Device : cuda
ModuleList(
  (0): Linear(in_features=5376, out_features=2000, bias=True)
  (1): Dropout(p=0.3, inplace=False)
  (2): BatchNorm1d(2000, eps=1e-05, momentum=0.1, affine=True, track_running_stats=True)
  (3): LeakyReLU(negative_slope=0.02)
  (4): Linear(in_features=2000, out_features=100, bias=True)
  (5): Dropout(p=0.2, inplace=False)
  (6): BatchNorm1d(100, eps=1e-05, momentum=0.1, affine=True, track_running_stats=True)
  (7): LeakyReLU(negative_slope=0.02)
  (8): Linear(in_features=100, out_features=16, bias=True)
  (9): Dropout(p=0.1, inplace=False)
  (10): BatchNorm1d(16, eps=1e-05, momentum=0.1, affine=True, track_running_stats=True)
  (11): LeakyReLU(negative_slope=0.02)
  (12): Linear(in_features=16, out_features=1, bias=True)
)

Epoch: 0
Training loss: 15.837162017822266 / Valid loss: 14.915881393069313
Model is saved in epoch 0, overall batch: 0
Training loss: 6.321648120880127 / Valid loss: 9.074903215680804
Model is saved in epoch 0, overall batch: 100
Training loss: 4.496370792388916 / Valid loss: 6.700826163518997
Model is saved in epoch 0, overall batch: 200
Training loss: 6.916571617126465 / Valid loss: 5.88400741985866
…
Training loss: 1.6510015726089478 / Valid loss: 6.816902519407726
Training loss: 1.3953044414520264 / Valid loss: 6.675641187032064
Training loss: 1.0813665390014648 / Valid loss: 6.907058129991804
Training loss: 1.5544873476028442 / Valid loss: 6.699519486654372
Training loss: 1.7450093030929565 / Valid loss: 7.016932487487793

Epoch: 39
Training loss: 1.4885809421539307 / Valid loss: 6.669003811336699
Training loss: 1.214550256729126 / Valid loss: 6.807244332631429
Training loss: 1.7696404457092285 / Valid loss: 6.746223190852574
Training loss: 1.050588607788086 / Valid loss: 6.554284985860189
ModuleList(
  (0): Linear(in_features=5376, out_features=2000, bias=True)
  (1): Dropout(p=0.3, inplace=False)
  (2): BatchNorm1d(2000, eps=1e-05, momentum=0.1, affine=True, track_running_stats=True)
  (3): LeakyReLU(negative_slope=0.02)
  (4): Linear(in_features=2000, out_features=100, bias=True)
  (5): Dropout(p=0.2, inplace=False)
  (6): BatchNorm1d(100, eps=1e-05, momentum=0.1, affine=True, track_running_stats=True)
  (7): LeakyReLU(negative_slope=0.02)
  (8): Linear(in_features=100, out_features=16, bias=True)
  (9): Dropout(p=0.1, inplace=False)
  (10): BatchNorm1d(16, eps=1e-05, momentum=0.1, affine=True, track_running_stats=True)
  (11): LeakyReLU(negative_slope=0.02)
  (12): Linear(in_features=16, out_features=1, bias=True)
)
Loss on test set of optimal model (batch 1700): 5.485486314410255
Training regression with following parameters:
dnn_hidden_units : 2000, 100, 16
dropout_probs : 0.3, 0.2, 0.1
learning_rate : 0.001
nr_epochs : 40
batch_size : 64
eval_freq : 100
data_dir : Data/
neg_slope : 0.02
optimizer : Adam
amsgrad : False
batchnorm : True
weightdecay : 1e-05
momentum : 0
embedder : Bert
verbose : False
reduced_classes : False
Device : cuda
ModuleList(
  (0): Linear(in_features=5376, out_features=2000, bias=True)
  (1): Dropout(p=0.3, inplace=False)
  (2): BatchNorm1d(2000, eps=1e-05, momentum=0.1, affine=True, track_running_stats=True)
  (3): LeakyReLU(negative_slope=0.02)
  (4): Linear(in_features=2000, out_features=100, bias=True)
  (5): Dropout(p=0.2, inplace=False)
  (6): BatchNorm1d(100, eps=1e-05, momentum=0.1, affine=True, track_running_stats=True)
  (7): LeakyReLU(negative_slope=0.02)
  (8): Linear(in_features=100, out_features=16, bias=True)
  (9): Dropout(p=0.1, inplace=False)
  (10): BatchNorm1d(16, eps=1e-05, momentum=0.1, affine=True, track_running_stats=True)
  (11): LeakyReLU(negative_slope=0.02)
  (12): Linear(in_features=16, out_features=1, bias=True)
)

Epoch: 0
Training loss: 15.837162017822266 / Valid loss: 14.915936270214262
Model is saved in epoch 0, overall batch: 0
Training loss: 6.12880277633667 / Valid loss: 8.900763366335914
Model is saved in epoch 0, overall batch: 100
Training loss: 4.323542594909668 / Valid loss: 6.402808729807536
Model is saved in epoch 0, overall batch: 200
Training loss: 7.096892833709717 / Valid loss: 5.7258542424156555
…
Training loss: 1.4844468832015991 / Valid loss: 6.715578960237049
Training loss: 1.5901527404785156 / Valid loss: 6.56353333791097
Training loss: 1.222459316253662 / Valid loss: 6.8364028658185685
Training loss: 1.328528642654419 / Valid loss: 6.541275365012033
Training loss: 1.6287486553192139 / Valid loss: 6.631556638081869

Epoch: 39
Training loss: 1.065624713897705 / Valid loss: 6.603000218527658
Training loss: 1.4644267559051514 / Valid loss: 6.7342379206702825
Training loss: 1.2081091403961182 / Valid loss: 6.696993836902437
Training loss: 1.1483948230743408 / Valid loss: 6.764512293679374
ModuleList(
  (0): Linear(in_features=5376, out_features=2000, bias=True)
  (1): Dropout(p=0.3, inplace=False)
  (2): BatchNorm1d(2000, eps=1e-05, momentum=0.1, affine=True, track_running_stats=True)
  (3): LeakyReLU(negative_slope=0.02)
  (4): Linear(in_features=2000, out_features=100, bias=True)
  (5): Dropout(p=0.2, inplace=False)
  (6): BatchNorm1d(100, eps=1e-05, momentum=0.1, affine=True, track_running_stats=True)
  (7): LeakyReLU(negative_slope=0.02)
  (8): Linear(in_features=100, out_features=16, bias=True)
  (9): Dropout(p=0.1, inplace=False)
  (10): BatchNorm1d(16, eps=1e-05, momentum=0.1, affine=True, track_running_stats=True)
  (11): LeakyReLU(negative_slope=0.02)
  (12): Linear(in_features=16, out_features=1, bias=True)
)
Loss on test set of optimal model (batch 1200): 5.45414776120867
Training regression with following parameters:
dnn_hidden_units : 300, 32
dropout_probs : 0.3, 0.1
learning_rate : 0.001
nr_epochs : 40
batch_size : 64
eval_freq : 100
data_dir : Data/
neg_slope : 0.02
optimizer : Adam
amsgrad : False
batchnorm : True
weightdecay : 0.0
momentum : 0
embedder : Bert
verbose : False
reduced_classes : False
Device : cuda
ModuleList(
  (0): Linear(in_features=5376, out_features=300, bias=True)
  (1): Dropout(p=0.3, inplace=False)
  (2): BatchNorm1d(300, eps=1e-05, momentum=0.1, affine=True, track_running_stats=True)
  (3): LeakyReLU(negative_slope=0.02)
  (4): Linear(in_features=300, out_features=32, bias=True)
  (5): Dropout(p=0.1, inplace=False)
  (6): BatchNorm1d(32, eps=1e-05, momentum=0.1, affine=True, track_running_stats=True)
  (7): LeakyReLU(negative_slope=0.02)
  (8): Linear(in_features=32, out_features=1, bias=True)
)

Epoch: 0
Training loss: 13.974810600280762 / Valid loss: 15.079355621337891
Model is saved in epoch 0, overall batch: 0
Training loss: 3.929624319076538 / Valid loss: 10.01613549277896
Model is saved in epoch 0, overall batch: 100
Training loss: 4.945060729980469 / Valid loss: 7.867315601167225
Model is saved in epoch 0, overall batch: 200
Training loss: 5.312336444854736 / Valid loss: 7.729926050276983
…
Training loss: 1.4070963859558105 / Valid loss: 6.46595246678307
Training loss: 1.6903269290924072 / Valid loss: 6.367259625026158
Training loss: 1.7485744953155518 / Valid loss: 6.3066899140675865
Training loss: 1.6495732069015503 / Valid loss: 6.401428738094512
Training loss: 3.092468738555908 / Valid loss: 6.321637825738816

Epoch: 39
Training loss: 1.9705837965011597 / Valid loss: 6.508266880398705
Training loss: 1.3893158435821533 / Valid loss: 6.5012483051845
Training loss: 1.6842048168182373 / Valid loss: 6.4130392869313555
Training loss: 2.3324475288391113 / Valid loss: 6.323225455057053
ModuleList(
  (0): Linear(in_features=5376, out_features=300, bias=True)
  (1): Dropout(p=0.3, inplace=False)
  (2): BatchNorm1d(300, eps=1e-05, momentum=0.1, affine=True, track_running_stats=True)
  (3): LeakyReLU(negative_slope=0.02)
  (4): Linear(in_features=300, out_features=32, bias=True)
  (5): Dropout(p=0.1, inplace=False)
  (6): BatchNorm1d(32, eps=1e-05, momentum=0.1, affine=True, track_running_stats=True)
  (7): LeakyReLU(negative_slope=0.02)
  (8): Linear(in_features=32, out_features=1, bias=True)
)
Loss on test set of optimal model (batch 2700): 5.424064309256417
Training regression with following parameters:
dnn_hidden_units : 300, 32
dropout_probs : 0.3, 0.1
learning_rate : 0.001
nr_epochs : 40
batch_size : 64
eval_freq : 100
data_dir : Data/
neg_slope : 0.02
optimizer : Adam
amsgrad : False
batchnorm : True
weightdecay : 1e-05
momentum : 0
embedder : Bert
verbose : False
reduced_classes : False
Device : cuda
ModuleList(
  (0): Linear(in_features=5376, out_features=300, bias=True)
  (1): Dropout(p=0.3, inplace=False)
  (2): BatchNorm1d(300, eps=1e-05, momentum=0.1, affine=True, track_running_stats=True)
  (3): LeakyReLU(negative_slope=0.02)
  (4): Linear(in_features=300, out_features=32, bias=True)
  (5): Dropout(p=0.1, inplace=False)
  (6): BatchNorm1d(32, eps=1e-05, momentum=0.1, affine=True, track_running_stats=True)
  (7): LeakyReLU(negative_slope=0.02)
  (8): Linear(in_features=32, out_features=1, bias=True)
)

Epoch: 0
Training loss: 13.974810600280762 / Valid loss: 15.079357937404088
Model is saved in epoch 0, overall batch: 0
Training loss: 3.8970508575439453 / Valid loss: 10.083162203289213
Model is saved in epoch 0, overall batch: 100
Training loss: 4.858211517333984 / Valid loss: 7.683267752329509
Model is saved in epoch 0, overall batch: 200
Training loss: 5.32241153717041 / Valid loss: 7.508594858078729
…
Training loss: 1.7430763244628906 / Valid loss: 6.393595977056594
Training loss: 1.1067616939544678 / Valid loss: 6.530601878393264
Training loss: 2.137836456298828 / Valid loss: 6.333166849045527
Training loss: 2.0675671100616455 / Valid loss: 6.532883650915963
Training loss: 2.7397730350494385 / Valid loss: 6.372574002402169

Epoch: 39
Training loss: 2.0905568599700928 / Valid loss: 6.649671422867548
Training loss: 1.9530506134033203 / Valid loss: 6.535980267751785
Training loss: 1.8659470081329346 / Valid loss: 6.556675888243175
Training loss: 2.2112059593200684 / Valid loss: 6.463347221556164
ModuleList(
  (0): Linear(in_features=5376, out_features=300, bias=True)
  (1): Dropout(p=0.3, inplace=False)
  (2): BatchNorm1d(300, eps=1e-05, momentum=0.1, affine=True, track_running_stats=True)
  (3): LeakyReLU(negative_slope=0.02)
  (4): Linear(in_features=300, out_features=32, bias=True)
  (5): Dropout(p=0.1, inplace=False)
  (6): BatchNorm1d(32, eps=1e-05, momentum=0.1, affine=True, track_running_stats=True)
  (7): LeakyReLU(negative_slope=0.02)
  (8): Linear(in_features=32, out_features=1, bias=True)
)
Loss on test set of optimal model (batch 2700): 5.427827094850086
Training regression with following parameters:
dnn_hidden_units : 248
dropout_probs : 0.1
learning_rate : 0.001
nr_epochs : 40
batch_size : 64
eval_freq : 100
data_dir : Data/
neg_slope : 0.02
optimizer : Adam
amsgrad : False
batchnorm : True
weightdecay : 0.0
momentum : 0
embedder : Bert
verbose : False
reduced_classes : False
Device : cuda
ModuleList(
  (0): Linear(in_features=5376, out_features=248, bias=True)
  (1): Dropout(p=0.1, inplace=False)
  (2): BatchNorm1d(248, eps=1e-05, momentum=0.1, affine=True, track_running_stats=True)
  (3): LeakyReLU(negative_slope=0.02)
  (4): Linear(in_features=248, out_features=1, bias=True)
)

Epoch: 0
Training loss: 20.614124298095703 / Valid loss: 16.246218199956985
Model is saved in epoch 0, overall batch: 0
Training loss: 6.312493801116943 / Valid loss: 5.877674141384307
Model is saved in epoch 0, overall batch: 100
Training loss: 6.751472473144531 / Valid loss: 6.418519231251308
Training loss: 6.353551864624023 / Valid loss: 6.0100365343548
…
Training loss: 0.8146712779998779 / Valid loss: 7.329815383184524
Training loss: 1.5535697937011719 / Valid loss: 7.115889894394647
Training loss: 1.3118767738342285 / Valid loss: 7.181014431090582
Training loss: 1.3193309307098389 / Valid loss: 7.15113836924235
Training loss: 1.1030142307281494 / Valid loss: 7.360822000957671

Epoch: 39
Training loss: 0.7482557892799377 / Valid loss: 7.257923466818673
Training loss: 1.122933030128479 / Valid loss: 7.375155385335287
Training loss: 1.0373461246490479 / Valid loss: 7.673414779844738
Training loss: 0.69545578956604 / Valid loss: 8.135871514819918
ModuleList(
  (0): Linear(in_features=5376, out_features=248, bias=True)
  (1): Dropout(p=0.1, inplace=False)
  (2): BatchNorm1d(248, eps=1e-05, momentum=0.1, affine=True, track_running_stats=True)
  (3): LeakyReLU(negative_slope=0.02)
  (4): Linear(in_features=248, out_features=1, bias=True)
)
Loss on test set of optimal model (batch 2300): 5.434702680224464
Training regression with following parameters:
dnn_hidden_units : 248
dropout_probs : 0.1
learning_rate : 0.001
nr_epochs : 40
batch_size : 64
eval_freq : 100
data_dir : Data/
neg_slope : 0.02
optimizer : Adam
amsgrad : False
batchnorm : True
weightdecay : 1e-05
momentum : 0
embedder : Bert
verbose : False
reduced_classes : False
Device : cuda
ModuleList(
  (0): Linear(in_features=5376, out_features=248, bias=True)
  (1): Dropout(p=0.1, inplace=False)
  (2): BatchNorm1d(248, eps=1e-05, momentum=0.1, affine=True, track_running_stats=True)
  (3): LeakyReLU(negative_slope=0.02)
  (4): Linear(in_features=248, out_features=1, bias=True)
)

Epoch: 0
Training loss: 20.614124298095703 / Valid loss: 16.24617805480957
Model is saved in epoch 0, overall batch: 0
Training loss: 6.314384460449219 / Valid loss: 5.873962983630952
Model is saved in epoch 0, overall batch: 100
Training loss: 6.742455005645752 / Valid loss: 6.414893329711187
Training loss: 6.3054680824279785 / Valid loss: 5.997526246025449
…
Training loss: 0.8200703859329224 / Valid loss: 7.258412994657244
Training loss: 1.3015737533569336 / Valid loss: 7.139923590705508
Training loss: 0.8698909282684326 / Valid loss: 7.111043158031645
Training loss: 1.3477221727371216 / Valid loss: 7.322104794638498
Training loss: 1.086107611656189 / Valid loss: 7.614036501021612

Epoch: 39
Training loss: 1.0358190536499023 / Valid loss: 7.217134280431838
Training loss: 0.8359359502792358 / Valid loss: 7.1579746132805235
Training loss: 0.9139401912689209 / Valid loss: 7.282702888761248
Training loss: 0.6878699064254761 / Valid loss: 8.432963702792213
ModuleList(
  (0): Linear(in_features=5376, out_features=248, bias=True)
  (1): Dropout(p=0.1, inplace=False)
  (2): BatchNorm1d(248, eps=1e-05, momentum=0.1, affine=True, track_running_stats=True)
  (3): LeakyReLU(negative_slope=0.02)
  (4): Linear(in_features=248, out_features=1, bias=True)
)
Loss on test set of optimal model (batch 2300): 5.435509157180786
Training regression with following parameters:
dnn_hidden_units : 2000, 100, 16
dropout_probs : 0.3, 0.2, 0.1
learning_rate : 0.0001
nr_epochs : 40
batch_size : 64
eval_freq : 100
data_dir : Data/
neg_slope : 0.02
optimizer : Adam
amsgrad : False
batchnorm : True
weightdecay : 0.0
momentum : 0
embedder : Bert
verbose : False
reduced_classes : False
Device : cuda
ModuleList(
  (0): Linear(in_features=5376, out_features=2000, bias=True)
  (1): Dropout(p=0.3, inplace=False)
  (2): BatchNorm1d(2000, eps=1e-05, momentum=0.1, affine=True, track_running_stats=True)
  (3): LeakyReLU(negative_slope=0.02)
  (4): Linear(in_features=2000, out_features=100, bias=True)
  (5): Dropout(p=0.2, inplace=False)
  (6): BatchNorm1d(100, eps=1e-05, momentum=0.1, affine=True, track_running_stats=True)
  (7): LeakyReLU(negative_slope=0.02)
  (8): Linear(in_features=100, out_features=16, bias=True)
  (9): Dropout(p=0.1, inplace=False)
  (10): BatchNorm1d(16, eps=1e-05, momentum=0.1, affine=True, track_running_stats=True)
  (11): LeakyReLU(negative_slope=0.02)
  (12): Linear(in_features=16, out_features=1, bias=True)
)

Epoch: 0
Training loss: 15.837162017822266 / Valid loss: 15.2834961664109
Model is saved in epoch 0, overall batch: 0
Training loss: 9.270496368408203 / Valid loss: 13.080676909855434
Model is saved in epoch 0, overall batch: 100
Training loss: 10.451250076293945 / Valid loss: 12.950587785811651
Model is saved in epoch 0, overall batch: 200
Training loss: 16.3831844329834 / Valid loss: 12.218393307640438
…
Training loss: 1.189232349395752 / Valid loss: 7.149541241782052
Training loss: 1.5329698324203491 / Valid loss: 6.922761185963949
Training loss: 1.2551205158233643 / Valid loss: 7.073573612031483
Training loss: 1.5399324893951416 / Valid loss: 6.8928584961664106
Training loss: 1.420736312866211 / Valid loss: 7.338531239827474

Epoch: 39
Training loss: 1.1662254333496094 / Valid loss: 6.954379631224133
Training loss: 1.2068912982940674 / Valid loss: 6.923326017743065
Training loss: 1.5547657012939453 / Valid loss: 7.273401660010928
Training loss: 1.182309865951538 / Valid loss: 6.827539752778553
ModuleList(
  (0): Linear(in_features=5376, out_features=248, bias=True)
  (1): Dropout(p=0.1, inplace=False)
  (2): BatchNorm1d(248, eps=1e-05, momentum=0.1, affine=True, track_running_stats=True)
  (3): LeakyReLU(negative_slope=0.02)
  (4): Linear(in_features=248, out_features=1, bias=True)
)
Loss on test set of optimal model (batch 2300): 5.4399934609731035
Training regression with following parameters:
dnn_hidden_units : 2000, 100, 16
dropout_probs : 0.3, 0.2, 0.1
learning_rate : 0.001
nr_epochs : 40
batch_size : 64
eval_freq : 100
data_dir : Data/
neg_slope : 0.02
optimizer : Adam
amsgrad : False
batchnorm : True
weightdecay : 0.0
momentum : 0
embedder : TFIDF
verbose : False
reduced_classes : False
Device : cuda
ModuleList(
  (0): Linear(in_features=31191, out_features=2000, bias=True)
  (1): Dropout(p=0.3, inplace=False)
  (2): BatchNorm1d(2000, eps=1e-05, momentum=0.1, affine=True, track_running_stats=True)
  (3): LeakyReLU(negative_slope=0.02)
  (4): Linear(in_features=2000, out_features=100, bias=True)
  (5): Dropout(p=0.2, inplace=False)
  (6): BatchNorm1d(100, eps=1e-05, momentum=0.1, affine=True, track_running_stats=True)
  (7): LeakyReLU(negative_slope=0.02)
  (8): Linear(in_features=100, out_features=16, bias=True)
  (9): Dropout(p=0.1, inplace=False)
  (10): BatchNorm1d(16, eps=1e-05, momentum=0.1, affine=True, track_running_stats=True)
  (11): LeakyReLU(negative_slope=0.02)
  (12): Linear(in_features=16, out_features=1, bias=True)
)

Epoch: 0
Training loss: 17.74432945251465 / Valid loss: 16.968025570824032
Model is saved in epoch 0, overall batch: 0
Training loss: 13.701087951660156 / Valid loss: 12.826457936423166
Model is saved in epoch 0, overall batch: 100
Training loss: 7.878472805023193 / Valid loss: 8.202859624226887
Model is saved in epoch 0, overall batch: 200
Training loss: 5.817796230316162 / Valid loss: 6.27990471976144
…
Training loss: 0.34665438532829285 / Valid loss: 7.242190812882923
Training loss: 0.26234355568885803 / Valid loss: 7.156089494341896
Training loss: 0.7550801038742065 / Valid loss: 7.172254984719412
Training loss: 0.43685922026634216 / Valid loss: 7.2515763010297505
Training loss: 0.6196084022521973 / Valid loss: 7.256226721264067

Epoch: 39
Training loss: 0.27097398042678833 / Valid loss: 7.223116824740456
Training loss: 0.6642748117446899 / Valid loss: 7.176181747799828
Training loss: 0.47940123081207275 / Valid loss: 7.077687356585548
Training loss: 0.42211127281188965 / Valid loss: 7.049138350713821
ModuleList(
  (0): Linear(in_features=31191, out_features=2000, bias=True)
  (1): Dropout(p=0.3, inplace=False)
  (2): BatchNorm1d(2000, eps=1e-05, momentum=0.1, affine=True, track_running_stats=True)
  (3): LeakyReLU(negative_slope=0.02)
  (4): Linear(in_features=2000, out_features=100, bias=True)
  (5): Dropout(p=0.2, inplace=False)
  (6): BatchNorm1d(100, eps=1e-05, momentum=0.1, affine=True, track_running_stats=True)
  (7): LeakyReLU(negative_slope=0.02)
  (8): Linear(in_features=100, out_features=16, bias=True)
  (9): Dropout(p=0.1, inplace=False)
  (10): BatchNorm1d(16, eps=1e-05, momentum=0.1, affine=True, track_running_stats=True)
  (11): LeakyReLU(negative_slope=0.02)
  (12): Linear(in_features=16, out_features=1, bias=True)
)
Loss on test set of optimal model (batch 500): 5.559954497927711
Training regression with following parameters:
dnn_hidden_units : 2000, 100, 16
dropout_probs : 0.3, 0.2, 0.1
learning_rate : 0.001
nr_epochs : 40
batch_size : 64
eval_freq : 100
data_dir : Data/
neg_slope : 0.02
optimizer : Adam
amsgrad : False
batchnorm : True
weightdecay : 1e-05
momentum : 0
embedder : TFIDF
verbose : False
reduced_classes : False
Device : cuda
ModuleList(
  (0): Linear(in_features=31191, out_features=2000, bias=True)
  (1): Dropout(p=0.3, inplace=False)
  (2): BatchNorm1d(2000, eps=1e-05, momentum=0.1, affine=True, track_running_stats=True)
  (3): LeakyReLU(negative_slope=0.02)
  (4): Linear(in_features=2000, out_features=100, bias=True)
  (5): Dropout(p=0.2, inplace=False)
  (6): BatchNorm1d(100, eps=1e-05, momentum=0.1, affine=True, track_running_stats=True)
  (7): LeakyReLU(negative_slope=0.02)
  (8): Linear(in_features=100, out_features=16, bias=True)
  (9): Dropout(p=0.1, inplace=False)
  (10): BatchNorm1d(16, eps=1e-05, momentum=0.1, affine=True, track_running_stats=True)
  (11): LeakyReLU(negative_slope=0.02)
  (12): Linear(in_features=16, out_features=1, bias=True)
)

Epoch: 0
Training loss: 17.74432945251465 / Valid loss: 16.968129748389835
Model is saved in epoch 0, overall batch: 0
Training loss: 13.703207015991211 / Valid loss: 12.39322783606393
Model is saved in epoch 0, overall batch: 100
Training loss: 7.544443607330322 / Valid loss: 7.8606634594145275
Model is saved in epoch 0, overall batch: 200
Training loss: 5.282585144042969 / Valid loss: 6.099500933147612
…
Training loss: 0.5025102496147156 / Valid loss: 6.896211562837873
Training loss: 0.5410057306289673 / Valid loss: 6.821352715719314
Training loss: 0.9027124643325806 / Valid loss: 6.745876141956875
Training loss: 0.44726163148880005 / Valid loss: 6.828212052299863
Training loss: 0.9197580814361572 / Valid loss: 6.864306468055362

Epoch: 39
Training loss: 0.45959004759788513 / Valid loss: 6.983738295237223
Training loss: 0.5926836133003235 / Valid loss: 6.933816056024461
Training loss: 0.5620405077934265 / Valid loss: 6.88477292742048
Training loss: 0.4201053977012634 / Valid loss: 6.747240198226202
ModuleList(
  (0): Linear(in_features=31191, out_features=2000, bias=True)
  (1): Dropout(p=0.3, inplace=False)
  (2): BatchNorm1d(2000, eps=1e-05, momentum=0.1, affine=True, track_running_stats=True)
  (3): LeakyReLU(negative_slope=0.02)
  (4): Linear(in_features=2000, out_features=100, bias=True)
  (5): Dropout(p=0.2, inplace=False)
  (6): BatchNorm1d(100, eps=1e-05, momentum=0.1, affine=True, track_running_stats=True)
  (7): LeakyReLU(negative_slope=0.02)
  (8): Linear(in_features=100, out_features=16, bias=True)
  (9): Dropout(p=0.1, inplace=False)
  (10): BatchNorm1d(16, eps=1e-05, momentum=0.1, affine=True, track_running_stats=True)
  (11): LeakyReLU(negative_slope=0.02)
  (12): Linear(in_features=16, out_features=1, bias=True)
)
Loss on test set of optimal model (batch 500): 5.5428800219581245
Training regression with following parameters:
dnn_hidden_units : 300, 32
dropout_probs : 0.3, 0.1
learning_rate : 0.001
nr_epochs : 40
batch_size : 64
eval_freq : 100
data_dir : Data/
neg_slope : 0.02
optimizer : Adam
amsgrad : False
batchnorm : True
weightdecay : 0.0
momentum : 0
embedder : TFIDF
verbose : False
reduced_classes : False
Device : cuda
ModuleList(
  (0): Linear(in_features=31191, out_features=300, bias=True)
  (1): Dropout(p=0.3, inplace=False)
  (2): BatchNorm1d(300, eps=1e-05, momentum=0.1, affine=True, track_running_stats=True)
  (3): LeakyReLU(negative_slope=0.02)
  (4): Linear(in_features=300, out_features=32, bias=True)
  (5): Dropout(p=0.1, inplace=False)
  (6): BatchNorm1d(32, eps=1e-05, momentum=0.1, affine=True, track_running_stats=True)
  (7): LeakyReLU(negative_slope=0.02)
  (8): Linear(in_features=32, out_features=1, bias=True)
)

Epoch: 0
Training loss: 14.448760986328125 / Valid loss: 15.737742124285017
Model is saved in epoch 0, overall batch: 0
Training loss: 8.795398712158203 / Valid loss: 10.334118756793794
Model is saved in epoch 0, overall batch: 100
Training loss: 4.857907772064209 / Valid loss: 6.878621821176438
Model is saved in epoch 0, overall batch: 200
Training loss: 4.154490947723389 / Valid loss: 6.162181227547782
…
Training loss: 0.5103468894958496 / Valid loss: 7.2856298991612025
Training loss: 0.3037218451499939 / Valid loss: 7.208905269986107
Training loss: 0.5037209987640381 / Valid loss: 7.196125679924375
Training loss: 0.4083157777786255 / Valid loss: 7.130725381487892
Training loss: 0.3602204918861389 / Valid loss: 7.263828722635905

Epoch: 39
Training loss: 0.5433223247528076 / Valid loss: 7.159868335723877
Training loss: 0.700443685054779 / Valid loss: 7.225786490667434
Training loss: 0.4995967149734497 / Valid loss: 7.236855225335984
Training loss: 0.48588594794273376 / Valid loss: 7.213035669780913
ModuleList(
  (0): Linear(in_features=31191, out_features=300, bias=True)
  (1): Dropout(p=0.3, inplace=False)
  (2): BatchNorm1d(300, eps=1e-05, momentum=0.1, affine=True, track_running_stats=True)
  (3): LeakyReLU(negative_slope=0.02)
  (4): Linear(in_features=300, out_features=32, bias=True)
  (5): Dropout(p=0.1, inplace=False)
  (6): BatchNorm1d(32, eps=1e-05, momentum=0.1, affine=True, track_running_stats=True)
  (7): LeakyReLU(negative_slope=0.02)
  (8): Linear(in_features=32, out_features=1, bias=True)
)
Loss on test set of optimal model (batch 500): 5.788892982119606
Training regression with following parameters:
dnn_hidden_units : 300, 32
dropout_probs : 0.3, 0.1
learning_rate : 0.001
nr_epochs : 40
batch_size : 64
eval_freq : 100
data_dir : Data/
neg_slope : 0.02
optimizer : Adam
amsgrad : False
batchnorm : True
weightdecay : 1e-05
momentum : 0
embedder : TFIDF
verbose : False
reduced_classes : False
Device : cuda
ModuleList(
  (0): Linear(in_features=31191, out_features=300, bias=True)
  (1): Dropout(p=0.3, inplace=False)
  (2): BatchNorm1d(300, eps=1e-05, momentum=0.1, affine=True, track_running_stats=True)
  (3): LeakyReLU(negative_slope=0.02)
  (4): Linear(in_features=300, out_features=32, bias=True)
  (5): Dropout(p=0.1, inplace=False)
  (6): BatchNorm1d(32, eps=1e-05, momentum=0.1, affine=True, track_running_stats=True)
  (7): LeakyReLU(negative_slope=0.02)
  (8): Linear(in_features=32, out_features=1, bias=True)
)

Epoch: 0
Training loss: 14.448760986328125 / Valid loss: 15.738069852193197
Model is saved in epoch 0, overall batch: 0
Training loss: 8.732030868530273 / Valid loss: 9.982458732241676
Model is saved in epoch 0, overall batch: 100
Training loss: 5.128015995025635 / Valid loss: 6.50986351285662
Model is saved in epoch 0, overall batch: 200
Training loss: 3.928496837615967 / Valid loss: 5.97737063453311
…
Training loss: 0.5563550591468811 / Valid loss: 7.035859489440918
Training loss: 0.6219353079795837 / Valid loss: 7.03034592583066
Training loss: 0.5361130237579346 / Valid loss: 7.005019533066522
Training loss: 0.2752092182636261 / Valid loss: 6.975260319028582
Training loss: 0.5739355087280273 / Valid loss: 7.054572927384149

Epoch: 39
Training loss: 0.6006601452827454 / Valid loss: 6.934843449365525
Training loss: 0.5036587715148926 / Valid loss: 7.05179462886992
Training loss: 0.42665034532546997 / Valid loss: 7.024667240324474
Training loss: 0.2797468304634094 / Valid loss: 7.028275031135196
ModuleList(
  (0): Linear(in_features=31191, out_features=300, bias=True)
  (1): Dropout(p=0.3, inplace=False)
  (2): BatchNorm1d(300, eps=1e-05, momentum=0.1, affine=True, track_running_stats=True)
  (3): LeakyReLU(negative_slope=0.02)
  (4): Linear(in_features=300, out_features=32, bias=True)
  (5): Dropout(p=0.1, inplace=False)
  (6): BatchNorm1d(32, eps=1e-05, momentum=0.1, affine=True, track_running_stats=True)
  (7): LeakyReLU(negative_slope=0.02)
  (8): Linear(in_features=32, out_features=1, bias=True)
)
Loss on test set of optimal model (batch 500): 5.633414075488136
Training regression with following parameters:
dnn_hidden_units : 248
dropout_probs : 0.1
learning_rate : 0.001
nr_epochs : 40
batch_size : 64
eval_freq : 100
data_dir : Data/
neg_slope : 0.02
optimizer : Adam
amsgrad : False
batchnorm : True
weightdecay : 0.0
momentum : 0
embedder : TFIDF
verbose : False
reduced_classes : False
Device : cuda
ModuleList(
  (0): Linear(in_features=31191, out_features=248, bias=True)
  (1): Dropout(p=0.1, inplace=False)
  (2): BatchNorm1d(248, eps=1e-05, momentum=0.1, affine=True, track_running_stats=True)
  (3): LeakyReLU(negative_slope=0.02)
  (4): Linear(in_features=248, out_features=1, bias=True)
)

Epoch: 0
Training loss: 15.259333610534668 / Valid loss: 16.386977095831007
Model is saved in epoch 0, overall batch: 0
Training loss: 7.421402931213379 / Valid loss: 7.294734271367391
Model is saved in epoch 0, overall batch: 100
Training loss: 5.063512802124023 / Valid loss: 7.456066726502918
Training loss: 4.489648818969727 / Valid loss: 7.652603941872006
…
Training loss: 0.3271687626838684 / Valid loss: 7.628723762148902
Training loss: 0.17839935421943665 / Valid loss: 7.659501227878389
Training loss: 0.3498941659927368 / Valid loss: 7.686242889222645
Training loss: 0.21842503547668457 / Valid loss: 7.694141837528774
Training loss: 0.39932700991630554 / Valid loss: 7.6856816882178896

Epoch: 39
Training loss: 0.31953608989715576 / Valid loss: 7.628911481584821
Training loss: 0.3881165385246277 / Valid loss: 7.662602588108608
Training loss: 0.550746738910675 / Valid loss: 7.658024029504685
Training loss: 0.1762368381023407 / Valid loss: 7.686026514144171
ModuleList(
  (0): Linear(in_features=31191, out_features=248, bias=True)
  (1): Dropout(p=0.1, inplace=False)
  (2): BatchNorm1d(248, eps=1e-05, momentum=0.1, affine=True, track_running_stats=True)
  (3): LeakyReLU(negative_slope=0.02)
  (4): Linear(in_features=248, out_features=1, bias=True)
)
Loss on test set of optimal model (batch 1800): 6.927202915009998
Training regression with following parameters:
dnn_hidden_units : 248
dropout_probs : 0.1
learning_rate : 0.001
nr_epochs : 40
batch_size : 64
eval_freq : 100
data_dir : Data/
neg_slope : 0.02
optimizer : Adam
amsgrad : False
batchnorm : True
weightdecay : 1e-05
momentum : 0
embedder : TFIDF
verbose : False
reduced_classes : False
Device : cuda
ModuleList(
  (0): Linear(in_features=31191, out_features=248, bias=True)
  (1): Dropout(p=0.1, inplace=False)
  (2): BatchNorm1d(248, eps=1e-05, momentum=0.1, affine=True, track_running_stats=True)
  (3): LeakyReLU(negative_slope=0.02)
  (4): Linear(in_features=248, out_features=1, bias=True)
)

Epoch: 0
Training loss: 15.259333610534668 / Valid loss: 16.385939834231422
Model is saved in epoch 0, overall batch: 0
Training loss: 7.252373218536377 / Valid loss: 7.591402698698498
Model is saved in epoch 0, overall batch: 100
Training loss: 5.23737096786499 / Valid loss: 7.644773914700463
Training loss: 4.503203868865967 / Valid loss: 7.74562828200204
…
Training loss: 0.3870116174221039 / Valid loss: 7.614204960777646
Training loss: 0.3432047367095947 / Valid loss: 7.632022739592053
Training loss: 0.3982335925102234 / Valid loss: 7.650183707191831
Training loss: 0.3996313214302063 / Valid loss: 7.673926367078509
Training loss: 0.42545202374458313 / Valid loss: 7.68598690032959

Epoch: 39
Training loss: 0.3862805962562561 / Valid loss: 7.663207054138184
Training loss: 0.3730643391609192 / Valid loss: 7.655191126323881
Training loss: 0.4604327380657196 / Valid loss: 7.652069541386195
Training loss: 0.28902557492256165 / Valid loss: 7.67128388995216
ModuleList(
  (0): Linear(in_features=31191, out_features=248, bias=True)
  (1): Dropout(p=0.1, inplace=False)
  (2): BatchNorm1d(248, eps=1e-05, momentum=0.1, affine=True, track_running_stats=True)
  (3): LeakyReLU(negative_slope=0.02)
  (4): Linear(in_features=248, out_features=1, bias=True)
)
Loss on test set of optimal model (batch 1500): 6.957749845868065
Training regression with following parameters:
dnn_hidden_units : 2000, 100, 16
dropout_probs : 0.3, 0.2, 0.1
learning_rate : 0.0001
nr_epochs : 40
batch_size : 64
eval_freq : 100
data_dir : Data/
neg_slope : 0.02
optimizer : Adam
amsgrad : False
batchnorm : True
weightdecay : 0.0
momentum : 0
embedder : TFIDF
verbose : False
reduced_classes : False
Device : cuda
ModuleList(
  (0): Linear(in_features=31191, out_features=2000, bias=True)
  (1): Dropout(p=0.3, inplace=False)
  (2): BatchNorm1d(2000, eps=1e-05, momentum=0.1, affine=True, track_running_stats=True)
  (3): LeakyReLU(negative_slope=0.02)
  (4): Linear(in_features=2000, out_features=100, bias=True)
  (5): Dropout(p=0.2, inplace=False)
  (6): BatchNorm1d(100, eps=1e-05, momentum=0.1, affine=True, track_running_stats=True)
  (7): LeakyReLU(negative_slope=0.02)
  (8): Linear(in_features=100, out_features=16, bias=True)
  (9): Dropout(p=0.1, inplace=False)
  (10): BatchNorm1d(16, eps=1e-05, momentum=0.1, affine=True, track_running_stats=True)
  (11): LeakyReLU(negative_slope=0.02)
  (12): Linear(in_features=16, out_features=1, bias=True)
)

Epoch: 0
Training loss: 17.74432945251465 / Valid loss: 16.990839376903715
Model is saved in epoch 0, overall batch: 0
Training loss: 18.813312530517578 / Valid loss: 15.719861066909063
Model is saved in epoch 0, overall batch: 100
Training loss: 14.273900985717773 / Valid loss: 14.980305503663562
Model is saved in epoch 0, overall batch: 200
Training loss: 13.989517211914062 / Valid loss: 14.497876003810338
…
Training loss: 0.4064718186855316 / Valid loss: 7.1322897456941154
Training loss: 0.19152326881885529 / Valid loss: 7.265412548610143
Training loss: 0.46468231081962585 / Valid loss: 7.236129819779169
Training loss: 0.21891692280769348 / Valid loss: 7.225634443192255
Training loss: 0.3839791417121887 / Valid loss: 7.206739902496338

Epoch: 39
Training loss: 0.30140817165374756 / Valid loss: 7.179327869415284
Training loss: 0.2967921495437622 / Valid loss: 7.2053521020071845
Training loss: 0.6166531443595886 / Valid loss: 7.121372924532209
Training loss: 0.35881519317626953 / Valid loss: 7.25263154620216
ModuleList(
  (0): Linear(in_features=31191, out_features=248, bias=True)
  (1): Dropout(p=0.1, inplace=False)
  (2): BatchNorm1d(248, eps=1e-05, momentum=0.1, affine=True, track_running_stats=True)
  (3): LeakyReLU(negative_slope=0.02)
  (4): Linear(in_features=248, out_features=1, bias=True)
)
Loss on test set of optimal model (batch 1100): 6.41183200336638
Training regression with following parameters:
dnn_hidden_units : 2000, 100, 16
dropout_probs : 0.3, 0.2, 0.1
learning_rate : 0.001
nr_epochs : 40
batch_size : 64
eval_freq : 100
data_dir : Data/
neg_slope : 0.02
optimizer : SGD
amsgrad : False
batchnorm : True
weightdecay : 0.0
momentum : 0
embedder : Bert
verbose : False
reduced_classes : False
Device : cuda
ModuleList(
  (0): Linear(in_features=5376, out_features=2000, bias=True)
  (1): Dropout(p=0.3, inplace=False)
  (2): BatchNorm1d(2000, eps=1e-05, momentum=0.1, affine=True, track_running_stats=True)
  (3): LeakyReLU(negative_slope=0.02)
  (4): Linear(in_features=2000, out_features=100, bias=True)
  (5): Dropout(p=0.2, inplace=False)
  (6): BatchNorm1d(100, eps=1e-05, momentum=0.1, affine=True, track_running_stats=True)
  (7): LeakyReLU(negative_slope=0.02)
  (8): Linear(in_features=100, out_features=16, bias=True)
  (9): Dropout(p=0.1, inplace=False)
  (10): BatchNorm1d(16, eps=1e-05, momentum=0.1, affine=True, track_running_stats=True)
  (11): LeakyReLU(negative_slope=0.02)
  (12): Linear(in_features=16, out_features=1, bias=True)
)

Epoch: 0
Training loss: 15.837162017822266 / Valid loss: 15.278275898524694
Model is saved in epoch 0, overall batch: 0
Training loss: 5.220392227172852 / Valid loss: 7.828187306722005
Model is saved in epoch 0, overall batch: 100
Training loss: 4.614802360534668 / Valid loss: 6.533045884541103
Model is saved in epoch 0, overall batch: 200
Training loss: 7.094908714294434 / Valid loss: 5.943607189541772
…
