…
             https://userinfo.surfsara.nl/documentation/software-policy-lisacartesius

             If you have any question, please contact us via http://servicedesk.surfsara.nl.'
********************************************************************************************
Training regression with following parameters:
dnn_hidden_units : 2000, 100, 16
dropout_probs : 0.0, 0.0
learning_rate : 0.001
nr_epochs : 40
batch_size : 64
eval_freq : 100
data_dir : Data/
neg_slope : 0.02
optimizer : Adam
amsgrad : False
batchnorm : True
weightdecay : 0.0
momentum : 0
embedder : Bert
verbose : False
reduced_classes : False
Device : cuda
ModuleList(
  (0): Linear(in_features=5376, out_features=2000, bias=True)
  (1): Dropout(p=0.0, inplace=False)
  (2): BatchNorm1d(2000, eps=1e-05, momentum=0.1, affine=True, track_running_stats=True)
  (3): LeakyReLU(negative_slope=0.02)
  (4): Linear(in_features=2000, out_features=100, bias=True)
  (5): Dropout(p=0.0, inplace=False)
  (6): BatchNorm1d(100, eps=1e-05, momentum=0.1, affine=True, track_running_stats=True)
  (7): LeakyReLU(negative_slope=0.02)
  (8): Linear(in_features=100, out_features=16, bias=True)
  (9): Dropout(p=0, inplace=False)
  (10): BatchNorm1d(16, eps=1e-05, momentum=0.1, affine=True, track_running_stats=True)
  (11): LeakyReLU(negative_slope=0.02)
  (12): Linear(in_features=16, out_features=1, bias=True)
)

Epoch: 0
Training loss: 15.765700340270996 / Valid loss: 13.399635451180595
Model is saved in epoch 0, overall batch: 0
Training loss: 6.127030372619629 / Valid loss: 8.819717675163632
Model is saved in epoch 0, overall batch: 100
Training loss: 4.364099502563477 / Valid loss: 6.371737811678932
Model is saved in epoch 0, overall batch: 200
Training loss: 6.64052152633667 / Valid loss: 5.719195552099318
…
Training loss: 0.55263751745224 / Valid loss: 6.903541265215193
Training loss: 0.3912277817726135 / Valid loss: 7.067876543317523
Training loss: 0.4043325185775757 / Valid loss: 7.0610686211358935
Training loss: 0.4284650683403015 / Valid loss: 7.244679419199626
Training loss: 0.7228416204452515 / Valid loss: 7.018387458437965

Epoch: 39
Training loss: 0.4735035002231598 / Valid loss: 7.049049045926049
Training loss: 0.40887895226478577 / Valid loss: 6.9995390347072055
Training loss: 0.3522275984287262 / Valid loss: 6.915446358635312
Training loss: 0.269299179315567 / Valid loss: 7.012306485857282
ModuleList(
  (0): Linear(in_features=5376, out_features=2000, bias=True)
  (1): Dropout(p=0.0, inplace=False)
  (2): BatchNorm1d(2000, eps=1e-05, momentum=0.1, affine=True, track_running_stats=True)
  (3): LeakyReLU(negative_slope=0.02)
  (4): Linear(in_features=2000, out_features=100, bias=True)
  (5): Dropout(p=0.0, inplace=False)
  (6): BatchNorm1d(100, eps=1e-05, momentum=0.1, affine=True, track_running_stats=True)
  (7): LeakyReLU(negative_slope=0.02)
  (8): Linear(in_features=100, out_features=16, bias=True)
  (9): Dropout(p=0, inplace=False)
  (10): BatchNorm1d(16, eps=1e-05, momentum=0.1, affine=True, track_running_stats=True)
  (11): LeakyReLU(negative_slope=0.02)
  (12): Linear(in_features=16, out_features=1, bias=True)
)
Loss on test set of optimal model (batch 1000): 5.320026810963949
Training regression with following parameters:
dnn_hidden_units : 2000, 100, 16
dropout_probs : 0.0, 0.0
learning_rate : 0.001
nr_epochs : 40
batch_size : 64
eval_freq : 100
data_dir : Data/
neg_slope : 0.02
optimizer : Adam
amsgrad : False
batchnorm : True
weightdecay : 1e-05
momentum : 0
embedder : Bert
verbose : False
reduced_classes : False
Device : cuda
ModuleList(
  (0): Linear(in_features=5376, out_features=2000, bias=True)
  (1): Dropout(p=0.0, inplace=False)
  (2): BatchNorm1d(2000, eps=1e-05, momentum=0.1, affine=True, track_running_stats=True)
  (3): LeakyReLU(negative_slope=0.02)
  (4): Linear(in_features=2000, out_features=100, bias=True)
  (5): Dropout(p=0.0, inplace=False)
  (6): BatchNorm1d(100, eps=1e-05, momentum=0.1, affine=True, track_running_stats=True)
  (7): LeakyReLU(negative_slope=0.02)
  (8): Linear(in_features=100, out_features=16, bias=True)
  (9): Dropout(p=0, inplace=False)
  (10): BatchNorm1d(16, eps=1e-05, momentum=0.1, affine=True, track_running_stats=True)
  (11): LeakyReLU(negative_slope=0.02)
  (12): Linear(in_features=16, out_features=1, bias=True)
)

Epoch: 0
Training loss: 15.765700340270996 / Valid loss: 13.401490120660691
Model is saved in epoch 0, overall batch: 0
Training loss: 6.062267303466797 / Valid loss: 8.8328503881182
Model is saved in epoch 0, overall batch: 100
Training loss: 4.281064987182617 / Valid loss: 6.432077296574911
Model is saved in epoch 0, overall batch: 200
Training loss: 6.606424331665039 / Valid loss: 5.75346112478347
…
Training loss: 0.8267818689346313 / Valid loss: 6.884455335707892
Training loss: 0.5258208513259888 / Valid loss: 7.022329421270461
Training loss: 0.3673804998397827 / Valid loss: 7.087516030811128
Training loss: 0.7852084040641785 / Valid loss: 7.2167782170431956
Training loss: 0.7004196643829346 / Valid loss: 7.105246471223377

Epoch: 39
Training loss: 0.5970690250396729 / Valid loss: 6.99689157576788
Training loss: 0.3395666778087616 / Valid loss: 6.90505788439796
Training loss: 0.4952620565891266 / Valid loss: 7.005407478695824
Training loss: 0.41947153210639954 / Valid loss: 7.028489442098708
ModuleList(
  (0): Linear(in_features=5376, out_features=2000, bias=True)
  (1): Dropout(p=0.0, inplace=False)
  (2): BatchNorm1d(2000, eps=1e-05, momentum=0.1, affine=True, track_running_stats=True)
  (3): LeakyReLU(negative_slope=0.02)
  (4): Linear(in_features=2000, out_features=100, bias=True)
  (5): Dropout(p=0.0, inplace=False)
  (6): BatchNorm1d(100, eps=1e-05, momentum=0.1, affine=True, track_running_stats=True)
  (7): LeakyReLU(negative_slope=0.02)
  (8): Linear(in_features=100, out_features=16, bias=True)
  (9): Dropout(p=0, inplace=False)
  (10): BatchNorm1d(16, eps=1e-05, momentum=0.1, affine=True, track_running_stats=True)
  (11): LeakyReLU(negative_slope=0.02)
  (12): Linear(in_features=16, out_features=1, bias=True)
)
Loss on test set of optimal model (batch 1000): 5.326819524310884
Training regression with following parameters:
dnn_hidden_units : 300, 32
dropout_probs : 0.0, 0.0
learning_rate : 0.001
nr_epochs : 40
batch_size : 64
eval_freq : 100
data_dir : Data/
neg_slope : 0.02
optimizer : Adam
amsgrad : False
batchnorm : True
weightdecay : 0.0
momentum : 0
embedder : Bert
verbose : False
reduced_classes : False
Device : cuda
ModuleList(
  (0): Linear(in_features=5376, out_features=300, bias=True)
  (1): Dropout(p=0.0, inplace=False)
  (2): BatchNorm1d(300, eps=1e-05, momentum=0.1, affine=True, track_running_stats=True)
  (3): LeakyReLU(negative_slope=0.02)
  (4): Linear(in_features=300, out_features=32, bias=True)
  (5): Dropout(p=0.0, inplace=False)
  (6): BatchNorm1d(32, eps=1e-05, momentum=0.1, affine=True, track_running_stats=True)
  (7): LeakyReLU(negative_slope=0.02)
  (8): Linear(in_features=32, out_features=1, bias=True)
)

Epoch: 0
Training loss: 13.485506057739258 / Valid loss: 14.727781214032854
Model is saved in epoch 0, overall batch: 0
Training loss: 4.084541320800781 / Valid loss: 7.065146973019554
Model is saved in epoch 0, overall batch: 100
Training loss: 4.639308452606201 / Valid loss: 5.684344668615432
Model is saved in epoch 0, overall batch: 200
Training loss: 5.593152046203613 / Valid loss: 5.590488869803292
…
Training loss: 0.4919784665107727 / Valid loss: 7.122518398648217
Training loss: 0.643317461013794 / Valid loss: 7.012989212217785
Training loss: 0.34803566336631775 / Valid loss: 7.0535520054045175
Training loss: 0.726897120475769 / Valid loss: 7.0877756482078915
Training loss: 1.1165282726287842 / Valid loss: 7.308023162115187

Epoch: 39
Training loss: 0.4511013925075531 / Valid loss: 7.21346648534139
Training loss: 0.4847315549850464 / Valid loss: 7.009142866588774
Training loss: 0.463386207818985 / Valid loss: 7.124725173768543
Training loss: 0.4445492625236511 / Valid loss: 7.365290523710705
ModuleList(
  (0): Linear(in_features=5376, out_features=300, bias=True)
  (1): Dropout(p=0.0, inplace=False)
  (2): BatchNorm1d(300, eps=1e-05, momentum=0.1, affine=True, track_running_stats=True)
  (3): LeakyReLU(negative_slope=0.02)
  (4): Linear(in_features=300, out_features=32, bias=True)
  (5): Dropout(p=0.0, inplace=False)
  (6): BatchNorm1d(32, eps=1e-05, momentum=0.1, affine=True, track_running_stats=True)
  (7): LeakyReLU(negative_slope=0.02)
  (8): Linear(in_features=32, out_features=1, bias=True)
)
Loss on test set of optimal model (batch 900): 5.322395140784128
Training regression with following parameters:
dnn_hidden_units : 300, 32
dropout_probs : 0.0, 0.0
learning_rate : 0.001
nr_epochs : 40
batch_size : 64
eval_freq : 100
data_dir : Data/
neg_slope : 0.02
optimizer : Adam
amsgrad : False
batchnorm : True
weightdecay : 1e-05
momentum : 0
embedder : Bert
verbose : False
reduced_classes : False
Device : cuda
ModuleList(
  (0): Linear(in_features=5376, out_features=300, bias=True)
  (1): Dropout(p=0.0, inplace=False)
  (2): BatchNorm1d(300, eps=1e-05, momentum=0.1, affine=True, track_running_stats=True)
  (3): LeakyReLU(negative_slope=0.02)
  (4): Linear(in_features=300, out_features=32, bias=True)
  (5): Dropout(p=0.0, inplace=False)
  (6): BatchNorm1d(32, eps=1e-05, momentum=0.1, affine=True, track_running_stats=True)
  (7): LeakyReLU(negative_slope=0.02)
  (8): Linear(in_features=32, out_features=1, bias=True)
)

Epoch: 0
Training loss: 13.485506057739258 / Valid loss: 14.729837326776414
Model is saved in epoch 0, overall batch: 0
Training loss: 4.105766296386719 / Valid loss: 7.071110221317836
Model is saved in epoch 0, overall batch: 100
Training loss: 4.631260871887207 / Valid loss: 5.6879703885033015
Model is saved in epoch 0, overall batch: 200
Training loss: 5.740025043487549 / Valid loss: 5.5972224167415074
…
Training loss: 0.7723866105079651 / Valid loss: 7.343012830189296
Training loss: 0.6117786169052124 / Valid loss: 7.1466880207970025
Training loss: 0.3011387586593628 / Valid loss: 7.362502039046515
Training loss: 0.8948017358779907 / Valid loss: 7.262730920882452
Training loss: 0.9481068849563599 / Valid loss: 7.423563675653367

Epoch: 39
Training loss: 0.5662729740142822 / Valid loss: 7.113974593934559
Training loss: 0.56878662109375 / Valid loss: 7.087985529218401
Training loss: 0.4870458245277405 / Valid loss: 7.5037301245189845
Training loss: 0.34059256315231323 / Valid loss: 7.296097571509225
ModuleList(
  (0): Linear(in_features=5376, out_features=300, bias=True)
  (1): Dropout(p=0.0, inplace=False)
  (2): BatchNorm1d(300, eps=1e-05, momentum=0.1, affine=True, track_running_stats=True)
  (3): LeakyReLU(negative_slope=0.02)
  (4): Linear(in_features=300, out_features=32, bias=True)
  (5): Dropout(p=0.0, inplace=False)
  (6): BatchNorm1d(32, eps=1e-05, momentum=0.1, affine=True, track_running_stats=True)
  (7): LeakyReLU(negative_slope=0.02)
  (8): Linear(in_features=32, out_features=1, bias=True)
)
Loss on test set of optimal model (batch 900): 5.311697196960449
Training regression with following parameters:
dnn_hidden_units : 248
dropout_probs : 0.0, 0.0
learning_rate : 0.001
nr_epochs : 40
batch_size : 64
eval_freq : 100
data_dir : Data/
neg_slope : 0.02
optimizer : Adam
amsgrad : False
batchnorm : True
weightdecay : 0.0
momentum : 0
embedder : Bert
verbose : False
reduced_classes : False
Device : cuda
ModuleList(
  (0): Linear(in_features=5376, out_features=248, bias=True)
  (1): Dropout(p=0.0, inplace=False)
  (2): BatchNorm1d(248, eps=1e-05, momentum=0.1, affine=True, track_running_stats=True)
  (3): LeakyReLU(negative_slope=0.02)
  (4): Linear(in_features=248, out_features=1, bias=True)
)

Epoch: 0
Training loss: 20.62260627746582 / Valid loss: 13.353901926676432
Model is saved in epoch 0, overall batch: 0
Training loss: 6.209975242614746 / Valid loss: 5.938352648417155
Model is saved in epoch 0, overall batch: 100
Training loss: 6.657140731811523 / Valid loss: 5.6690251191457115
Model is saved in epoch 0, overall batch: 200
Training loss: 6.0860395431518555 / Valid loss: 5.649145680382138
…
Training loss: 0.6747452616691589 / Valid loss: 8.160835901896158
Training loss: 0.8938506245613098 / Valid loss: 7.502346474783761
Training loss: 0.4844370484352112 / Valid loss: 7.557532437642416
Training loss: 0.834474503993988 / Valid loss: 7.594464756193615
Training loss: 0.7538855671882629 / Valid loss: 9.150615138099306

Epoch: 39
Training loss: 0.764763355255127 / Valid loss: 7.532930978139242
Training loss: 0.6772017478942871 / Valid loss: 7.522938278743199
Training loss: 0.5443825721740723 / Valid loss: 7.6536134946913945
Training loss: 0.3740144371986389 / Valid loss: 7.563319456009638
ModuleList(
  (0): Linear(in_features=5376, out_features=248, bias=True)
  (1): Dropout(p=0.0, inplace=False)
  (2): BatchNorm1d(248, eps=1e-05, momentum=0.1, affine=True, track_running_stats=True)
  (3): LeakyReLU(negative_slope=0.02)
  (4): Linear(in_features=248, out_features=1, bias=True)
)
Loss on test set of optimal model (batch 900): 5.371401709601993
Training regression with following parameters:
dnn_hidden_units : 248
dropout_probs : 0.0, 0.0
learning_rate : 0.001
nr_epochs : 40
batch_size : 64
eval_freq : 100
data_dir : Data/
neg_slope : 0.02
optimizer : Adam
amsgrad : False
batchnorm : True
weightdecay : 1e-05
momentum : 0
embedder : Bert
verbose : False
reduced_classes : False
Device : cuda
ModuleList(
  (0): Linear(in_features=5376, out_features=248, bias=True)
  (1): Dropout(p=0.0, inplace=False)
  (2): BatchNorm1d(248, eps=1e-05, momentum=0.1, affine=True, track_running_stats=True)
  (3): LeakyReLU(negative_slope=0.02)
  (4): Linear(in_features=248, out_features=1, bias=True)
)

Epoch: 0
Training loss: 20.62260627746582 / Valid loss: 13.353534662155878
Model is saved in epoch 0, overall batch: 0
Training loss: 6.212402820587158 / Valid loss: 5.954123401641846
Model is saved in epoch 0, overall batch: 100
Training loss: 6.629227638244629 / Valid loss: 5.664971397036598
Model is saved in epoch 0, overall batch: 200
Training loss: 6.093127727508545 / Valid loss: 5.6654205254146035
…
Training loss: 5.709724426269531 / Valid loss: 6.16394723937625
Training loss: 6.062953472137451 / Valid loss: 6.13388090814863
Training loss: 5.3983869552612305 / Valid loss: 6.109476741154989
Training loss: 4.647428035736084 / Valid loss: 5.960790917986915
Training loss: 4.3894500732421875 / Valid loss: 5.929756516502017

Epoch: 39
Training loss: 4.218161582946777 / Valid loss: 5.874678636732556
Training loss: 5.019801139831543 / Valid loss: 6.16262541725522
Training loss: 5.976459980010986 / Valid loss: 5.9745314234779
Training loss: 5.157322406768799 / Valid loss: 6.173145439511254
ModuleList(
  (0): Linear(in_features=5376, out_features=1, bias=True)
)
Loss on test set of optimal model (batch 300): 5.45022995585487
Training regression with following parameters:
dnn_hidden_units : 2000, 100, 16
dropout_probs : 0.0, 0.0
learning_rate : 0.0001
nr_epochs : 40
batch_size : 64
eval_freq : 100
data_dir : Data/
neg_slope : 0.02
optimizer : Adam
amsgrad : False
batchnorm : True
weightdecay : 0.0
momentum : 0
embedder : Bert
verbose : False
reduced_classes : False
Device : cuda
ModuleList(
  (0): Linear(in_features=5376, out_features=2000, bias=True)
  (1): Dropout(p=0.0, inplace=False)
  (2): BatchNorm1d(2000, eps=1e-05, momentum=0.1, affine=True, track_running_stats=True)
  (3): LeakyReLU(negative_slope=0.02)
  (4): Linear(in_features=2000, out_features=100, bias=True)
  (5): Dropout(p=0.0, inplace=False)
  (6): BatchNorm1d(100, eps=1e-05, momentum=0.1, affine=True, track_running_stats=True)
  (7): LeakyReLU(negative_slope=0.02)
  (8): Linear(in_features=100, out_features=16, bias=True)
  (9): Dropout(p=0, inplace=False)
  (10): BatchNorm1d(16, eps=1e-05, momentum=0.1, affine=True, track_running_stats=True)
  (11): LeakyReLU(negative_slope=0.02)
  (12): Linear(in_features=16, out_features=1, bias=True)
)

Epoch: 0
Training loss: 15.765700340270996 / Valid loss: 15.114407076154436
Model is saved in epoch 0, overall batch: 0
Training loss: 8.912009239196777 / Valid loss: 12.768657457260858
Model is saved in epoch 0, overall batch: 100
Training loss: 9.925810813903809 / Valid loss: 12.196747702643984
Model is saved in epoch 0, overall batch: 200
Training loss: 15.783401489257812 / Valid loss: 11.78140204747518
…
Training loss: 5.29150915145874 / Valid loss: 5.540976712817238
Training loss: 5.561371326446533 / Valid loss: 5.562143879845029
Training loss: 5.515566825866699 / Valid loss: 5.535952683857509
Training loss: 4.773533344268799 / Valid loss: 5.550301145371937
Training loss: 4.1226019859313965 / Valid loss: 5.538483111063639

Epoch: 39
Training loss: 4.301782608032227 / Valid loss: 5.537809044974191
Training loss: 5.40826416015625 / Valid loss: 5.5534259251185825
Training loss: 5.649791717529297 / Valid loss: 5.548598041988554
Training loss: 5.012590408325195 / Valid loss: 5.546900068010602
ModuleList(
  (0): Linear(in_features=5376, out_features=1, bias=True)
)
Loss on test set of optimal model (batch 4600): 5.316951529184977
Training regression with following parameters:
dnn_hidden_units : 2000, 100, 16
dropout_probs : 0.0, 0.0
learning_rate : 0.001
nr_epochs : 40
batch_size : 64
eval_freq : 100
data_dir : Data/
neg_slope : 0.02
optimizer : Adam
amsgrad : False
batchnorm : True
weightdecay : 0.0
momentum : 0
embedder : TFIDF
verbose : False
reduced_classes : False
Device : cuda
ModuleList(
  (0): Linear(in_features=31191, out_features=2000, bias=True)
  (1): Dropout(p=0.0, inplace=False)
  (2): BatchNorm1d(2000, eps=1e-05, momentum=0.1, affine=True, track_running_stats=True)
  (3): LeakyReLU(negative_slope=0.02)
  (4): Linear(in_features=2000, out_features=100, bias=True)
  (5): Dropout(p=0.0, inplace=False)
  (6): BatchNorm1d(100, eps=1e-05, momentum=0.1, affine=True, track_running_stats=True)
  (7): LeakyReLU(negative_slope=0.02)
  (8): Linear(in_features=100, out_features=16, bias=True)
  (9): Dropout(p=0, inplace=False)
  (10): BatchNorm1d(16, eps=1e-05, momentum=0.1, affine=True, track_running_stats=True)
  (11): LeakyReLU(negative_slope=0.02)
  (12): Linear(in_features=16, out_features=1, bias=True)
)

Epoch: 0
Training loss: 17.8549747467041 / Valid loss: 16.974769047328405
Model is saved in epoch 0, overall batch: 0
Training loss: 13.96962833404541 / Valid loss: 11.932385876065208
Model is saved in epoch 0, overall batch: 100
Training loss: 7.026939868927002 / Valid loss: 7.509492842356364
Model is saved in epoch 0, overall batch: 200
Training loss: 5.229887962341309 / Valid loss: 5.984595482689993
…
Training loss: 0.16202068328857422 / Valid loss: 7.03424585887364
Training loss: 0.1104569062590599 / Valid loss: 7.054315339951288
Training loss: 0.2690185308456421 / Valid loss: 6.925544629778181
Training loss: 0.24906687438488007 / Valid loss: 6.991949490138462
Training loss: 0.3112507462501526 / Valid loss: 6.955429808298747

Epoch: 39
Training loss: 0.0957954078912735 / Valid loss: 7.00460033416748
Training loss: 0.17185944318771362 / Valid loss: 6.996263876415434
Training loss: 0.10470522940158844 / Valid loss: 6.971412320364089
Training loss: 0.09794867038726807 / Valid loss: 6.941170692443848
ModuleList(
  (0): Linear(in_features=31191, out_features=2000, bias=True)
  (1): Dropout(p=0.0, inplace=False)
  (2): BatchNorm1d(2000, eps=1e-05, momentum=0.1, affine=True, track_running_stats=True)
  (3): LeakyReLU(negative_slope=0.02)
  (4): Linear(in_features=2000, out_features=100, bias=True)
  (5): Dropout(p=0.0, inplace=False)
  (6): BatchNorm1d(100, eps=1e-05, momentum=0.1, affine=True, track_running_stats=True)
  (7): LeakyReLU(negative_slope=0.02)
  (8): Linear(in_features=100, out_features=16, bias=True)
  (9): Dropout(p=0, inplace=False)
  (10): BatchNorm1d(16, eps=1e-05, momentum=0.1, affine=True, track_running_stats=True)
  (11): LeakyReLU(negative_slope=0.02)
  (12): Linear(in_features=16, out_features=1, bias=True)
)
Loss on test set of optimal model (batch 500): 5.606704682395572
Training regression with following parameters:
dnn_hidden_units : 2000, 100, 16
dropout_probs : 0.0, 0.0
learning_rate : 0.001
nr_epochs : 40
batch_size : 64
eval_freq : 100
data_dir : Data/
neg_slope : 0.02
optimizer : Adam
amsgrad : False
batchnorm : True
weightdecay : 1e-05
momentum : 0
embedder : TFIDF
verbose : False
reduced_classes : False
Device : cuda
ModuleList(
  (0): Linear(in_features=31191, out_features=2000, bias=True)
  (1): Dropout(p=0.0, inplace=False)
  (2): BatchNorm1d(2000, eps=1e-05, momentum=0.1, affine=True, track_running_stats=True)
  (3): LeakyReLU(negative_slope=0.02)
  (4): Linear(in_features=2000, out_features=100, bias=True)
  (5): Dropout(p=0.0, inplace=False)
  (6): BatchNorm1d(100, eps=1e-05, momentum=0.1, affine=True, track_running_stats=True)
  (7): LeakyReLU(negative_slope=0.02)
  (8): Linear(in_features=100, out_features=16, bias=True)
  (9): Dropout(p=0, inplace=False)
  (10): BatchNorm1d(16, eps=1e-05, momentum=0.1, affine=True, track_running_stats=True)
  (11): LeakyReLU(negative_slope=0.02)
  (12): Linear(in_features=16, out_features=1, bias=True)
)

Epoch: 0
Training loss: 17.8549747467041 / Valid loss: 16.972832034883044
Model is saved in epoch 0, overall batch: 0
Training loss: 13.647671699523926 / Valid loss: 11.816990747905912
Model is saved in epoch 0, overall batch: 100
Training loss: 7.404419422149658 / Valid loss: 7.568688896724156
Model is saved in epoch 0, overall batch: 200
Training loss: 5.127141952514648 / Valid loss: 6.032643479392642
…
Training loss: 0.14976775646209717 / Valid loss: 6.991291563851493
Training loss: 0.13477908074855804 / Valid loss: 7.07116977373759
Training loss: 0.32396823167800903 / Valid loss: 6.8496794019426614
Training loss: 0.24224434792995453 / Valid loss: 7.0080574671427405
Training loss: 0.39082515239715576 / Valid loss: 6.991599087488083

Epoch: 39
Training loss: 0.40894579887390137 / Valid loss: 6.986893617539179
Training loss: 0.17576690018177032 / Valid loss: 7.074411996205648
Training loss: 0.28991609811782837 / Valid loss: 6.891296604701451
Training loss: 0.22703006863594055 / Valid loss: 6.943802842639742
ModuleList(
  (0): Linear(in_features=31191, out_features=2000, bias=True)
  (1): Dropout(p=0.0, inplace=False)
  (2): BatchNorm1d(2000, eps=1e-05, momentum=0.1, affine=True, track_running_stats=True)
  (3): LeakyReLU(negative_slope=0.02)
  (4): Linear(in_features=2000, out_features=100, bias=True)
  (5): Dropout(p=0.0, inplace=False)
  (6): BatchNorm1d(100, eps=1e-05, momentum=0.1, affine=True, track_running_stats=True)
  (7): LeakyReLU(negative_slope=0.02)
  (8): Linear(in_features=100, out_features=16, bias=True)
  (9): Dropout(p=0, inplace=False)
  (10): BatchNorm1d(16, eps=1e-05, momentum=0.1, affine=True, track_running_stats=True)
  (11): LeakyReLU(negative_slope=0.02)
  (12): Linear(in_features=16, out_features=1, bias=True)
)
Loss on test set of optimal model (batch 500): 5.529609155654907
Training regression with following parameters:
dnn_hidden_units : 300, 32
dropout_probs : 0.0, 0.0
learning_rate : 0.001
nr_epochs : 40
batch_size : 64
eval_freq : 100
data_dir : Data/
neg_slope : 0.02
optimizer : Adam
amsgrad : False
batchnorm : True
weightdecay : 0.0
momentum : 0
embedder : TFIDF
verbose : False
reduced_classes : False
Device : cuda
ModuleList(
  (0): Linear(in_features=31191, out_features=300, bias=True)
  (1): Dropout(p=0.0, inplace=False)
  (2): BatchNorm1d(300, eps=1e-05, momentum=0.1, affine=True, track_running_stats=True)
  (3): LeakyReLU(negative_slope=0.02)
  (4): Linear(in_features=300, out_features=32, bias=True)
  (5): Dropout(p=0.0, inplace=False)
  (6): BatchNorm1d(32, eps=1e-05, momentum=0.1, affine=True, track_running_stats=True)
  (7): LeakyReLU(negative_slope=0.02)
  (8): Linear(in_features=32, out_features=1, bias=True)
)

Epoch: 0
Training loss: 14.313697814941406 / Valid loss: 15.73991907210577
Model is saved in epoch 0, overall batch: 0
Training loss: 8.40890121459961 / Valid loss: 9.4806762332008
Model is saved in epoch 0, overall batch: 100
Training loss: 4.984809875488281 / Valid loss: 6.232872719991775
Model is saved in epoch 0, overall batch: 200
Training loss: 3.5381689071655273 / Valid loss: 5.799423308599563
…
Training loss: 0.185095876455307 / Valid loss: 6.526794803710211
Training loss: 0.22719457745552063 / Valid loss: 6.507651079268682
Training loss: 0.2521217167377472 / Valid loss: 6.570317014058431
Training loss: 0.17851977050304413 / Valid loss: 6.5618193876175654
Training loss: 0.154308021068573 / Valid loss: 6.589817989440191

Epoch: 39
Training loss: 0.26257145404815674 / Valid loss: 6.532779141834804
Training loss: 0.26046887040138245 / Valid loss: 6.5549737748645605
Training loss: 0.14716210961341858 / Valid loss: 6.486575941812425
Training loss: 0.13739848136901855 / Valid loss: 6.488957777477446
ModuleList(
  (0): Linear(in_features=31191, out_features=300, bias=True)
  (1): Dropout(p=0.0, inplace=False)
  (2): BatchNorm1d(300, eps=1e-05, momentum=0.1, affine=True, track_running_stats=True)
  (3): LeakyReLU(negative_slope=0.02)
  (4): Linear(in_features=300, out_features=32, bias=True)
  (5): Dropout(p=0.0, inplace=False)
  (6): BatchNorm1d(32, eps=1e-05, momentum=0.1, affine=True, track_running_stats=True)
  (7): LeakyReLU(negative_slope=0.02)
  (8): Linear(in_features=32, out_features=1, bias=True)
)
Loss on test set of optimal model (batch 500): 5.620214945929391
Training regression with following parameters:
dnn_hidden_units : 300, 32
dropout_probs : 0.0, 0.0
learning_rate : 0.001
nr_epochs : 40
batch_size : 64
eval_freq : 100
data_dir : Data/
neg_slope : 0.02
optimizer : Adam
amsgrad : False
batchnorm : True
weightdecay : 1e-05
momentum : 0
embedder : TFIDF
verbose : False
reduced_classes : False
Device : cuda
ModuleList(
  (0): Linear(in_features=31191, out_features=300, bias=True)
  (1): Dropout(p=0.0, inplace=False)
  (2): BatchNorm1d(300, eps=1e-05, momentum=0.1, affine=True, track_running_stats=True)
  (3): LeakyReLU(negative_slope=0.02)
  (4): Linear(in_features=300, out_features=32, bias=True)
  (5): Dropout(p=0.0, inplace=False)
  (6): BatchNorm1d(32, eps=1e-05, momentum=0.1, affine=True, track_running_stats=True)
  (7): LeakyReLU(negative_slope=0.02)
  (8): Linear(in_features=32, out_features=1, bias=True)
)

Epoch: 0
Training loss: 14.313697814941406 / Valid loss: 15.745897629147484
Model is saved in epoch 0, overall batch: 0
Training loss: 8.684988975524902 / Valid loss: 9.49561504636492
Model is saved in epoch 0, overall batch: 100
Training loss: 4.908787727355957 / Valid loss: 6.179162275223505
Model is saved in epoch 0, overall batch: 200
Training loss: 3.5378198623657227 / Valid loss: 5.832422360919771
…
Training loss: 0.24127066135406494 / Valid loss: 6.380795996529716
Training loss: 0.3191433548927307 / Valid loss: 6.365634370985485
Training loss: 0.23392736911773682 / Valid loss: 6.4271805990309945
Training loss: 0.1855630874633789 / Valid loss: 6.392951913107009
Training loss: 0.24130728840827942 / Valid loss: 6.440296148118518

Epoch: 39
Training loss: 0.2724155783653259 / Valid loss: 6.369026263554891
Training loss: 0.3128526508808136 / Valid loss: 6.378529768898374
Training loss: 0.17988580465316772 / Valid loss: 6.375946208408901
Training loss: 0.16236960887908936 / Valid loss: 6.404260031382242
ModuleList(
  (0): Linear(in_features=31191, out_features=300, bias=True)
  (1): Dropout(p=0.0, inplace=False)
  (2): BatchNorm1d(300, eps=1e-05, momentum=0.1, affine=True, track_running_stats=True)
  (3): LeakyReLU(negative_slope=0.02)
  (4): Linear(in_features=300, out_features=32, bias=True)
  (5): Dropout(p=0.0, inplace=False)
  (6): BatchNorm1d(32, eps=1e-05, momentum=0.1, affine=True, track_running_stats=True)
  (7): LeakyReLU(negative_slope=0.02)
  (8): Linear(in_features=32, out_features=1, bias=True)
)
Loss on test set of optimal model (batch 500): 5.6254023188636415
Training regression with following parameters:
dnn_hidden_units : 248
dropout_probs : 0.0, 0.0
learning_rate : 0.001
nr_epochs : 40
batch_size : 64
eval_freq : 100
data_dir : Data/
neg_slope : 0.02
optimizer : Adam
amsgrad : False
batchnorm : True
weightdecay : 0.0
momentum : 0
embedder : TFIDF
verbose : False
reduced_classes : False
Device : cuda
ModuleList(
  (0): Linear(in_features=31191, out_features=248, bias=True)
  (1): Dropout(p=0.0, inplace=False)
  (2): BatchNorm1d(248, eps=1e-05, momentum=0.1, affine=True, track_running_stats=True)
  (3): LeakyReLU(negative_slope=0.02)
  (4): Linear(in_features=248, out_features=1, bias=True)
)

Epoch: 0
Training loss: 15.220863342285156 / Valid loss: 16.406339981442407
Model is saved in epoch 0, overall batch: 0
Training loss: 7.161015033721924 / Valid loss: 6.829741114661807
Model is saved in epoch 0, overall batch: 100
Training loss: 5.48242712020874 / Valid loss: 6.842602175757999
Training loss: 5.094162940979004 / Valid loss: 6.712977336701893
…
Training loss: 0.2542332708835602 / Valid loss: 7.499194208780924
Training loss: 0.20743155479431152 / Valid loss: 7.535943807874407
Training loss: 0.36721593141555786 / Valid loss: 7.517326795487177
Training loss: 0.22970321774482727 / Valid loss: 7.514741134643555
Training loss: 0.37335270643234253 / Valid loss: 7.510649522145589

Epoch: 39
Training loss: 0.2201930284500122 / Valid loss: 7.45075209027245
Training loss: 0.2802746891975403 / Valid loss: 7.549128191811698
Training loss: 0.646377444267273 / Valid loss: 7.53011121749878
Training loss: 0.22829610109329224 / Valid loss: 7.540164543333508
ModuleList(
  (0): Linear(in_features=31191, out_features=248, bias=True)
  (1): Dropout(p=0.0, inplace=False)
  (2): BatchNorm1d(248, eps=1e-05, momentum=0.1, affine=True, track_running_stats=True)
  (3): LeakyReLU(negative_slope=0.02)
  (4): Linear(in_features=248, out_features=1, bias=True)
)
Loss on test set of optimal model (batch 600): 6.057986116409301
Training regression with following parameters:
dnn_hidden_units : 248
dropout_probs : 0.0, 0.0
learning_rate : 0.001
nr_epochs : 40
batch_size : 64
eval_freq : 100
data_dir : Data/
neg_slope : 0.02
optimizer : Adam
amsgrad : False
batchnorm : True
weightdecay : 1e-05
momentum : 0
embedder : TFIDF
verbose : False
reduced_classes : False
Device : cuda
ModuleList(
  (0): Linear(in_features=31191, out_features=248, bias=True)
  (1): Dropout(p=0.0, inplace=False)
  (2): BatchNorm1d(248, eps=1e-05, momentum=0.1, affine=True, track_running_stats=True)
  (3): LeakyReLU(negative_slope=0.02)
  (4): Linear(in_features=248, out_features=1, bias=True)
)

Epoch: 0
Training loss: 15.220863342285156 / Valid loss: 16.40694210415795
Model is saved in epoch 0, overall batch: 0
Training loss: 7.332840919494629 / Valid loss: 6.955939104443504
Model is saved in epoch 0, overall batch: 100
Training loss: 5.757575988769531 / Valid loss: 6.844838455745152
Model is saved in epoch 0, overall batch: 200
Training loss: 4.947753429412842 / Valid loss: 6.693674139749437
…
Training loss: 3.236269950866699 / Valid loss: 5.50160824230739
Training loss: 3.573420524597168 / Valid loss: 5.505601385661534
Training loss: 4.264403820037842 / Valid loss: 5.5049280847821915
Training loss: 3.7087819576263428 / Valid loss: 5.507753115608579
Training loss: 4.401051998138428 / Valid loss: 5.509308708281744

Epoch: 39
Training loss: 2.338099479675293 / Valid loss: 5.509296340034122
Training loss: 3.877763271331787 / Valid loss: 5.51414335568746
Training loss: 4.858186721801758 / Valid loss: 5.512959798177083
Training loss: 3.9715676307678223 / Valid loss: 5.516570141201927
ModuleList(
  (0): Linear(in_features=31191, out_features=1, bias=True)
)
Loss on test set of optimal model (batch 12300): 5.3533706437973745
Training regression with following parameters:
dnn_hidden_units : 2000, 100, 16
dropout_probs : 0.0, 0.0
learning_rate : 0.0001
nr_epochs : 40
batch_size : 64
eval_freq : 100
data_dir : Data/
neg_slope : 0.02
optimizer : Adam
amsgrad : False
batchnorm : True
weightdecay : 0.0
momentum : 0
embedder : TFIDF
verbose : False
reduced_classes : False
Device : cuda
ModuleList(
  (0): Linear(in_features=31191, out_features=2000, bias=True)
  (1): Dropout(p=0.0, inplace=False)
  (2): BatchNorm1d(2000, eps=1e-05, momentum=0.1, affine=True, track_running_stats=True)
  (3): LeakyReLU(negative_slope=0.02)
  (4): Linear(in_features=2000, out_features=100, bias=True)
  (5): Dropout(p=0.0, inplace=False)
  (6): BatchNorm1d(100, eps=1e-05, momentum=0.1, affine=True, track_running_stats=True)
  (7): LeakyReLU(negative_slope=0.02)
  (8): Linear(in_features=100, out_features=16, bias=True)
  (9): Dropout(p=0, inplace=False)
  (10): BatchNorm1d(16, eps=1e-05, momentum=0.1, affine=True, track_running_stats=True)
  (11): LeakyReLU(negative_slope=0.02)
  (12): Linear(in_features=16, out_features=1, bias=True)
)

Epoch: 0
Training loss: 17.8549747467041 / Valid loss: 16.989478783380417
Model is saved in epoch 0, overall batch: 0
Training loss: 18.9604549407959 / Valid loss: 15.762811751592727
Model is saved in epoch 0, overall batch: 100
Training loss: 14.243934631347656 / Valid loss: 14.771505800882975
Model is saved in epoch 0, overall batch: 200
Training loss: 13.741157531738281 / Valid loss: 14.510727628072102
…
Model is saved in epoch 38, overall batch: 19000
Training loss: 7.497264862060547 / Valid loss: 6.104549719038464
Model is saved in epoch 38, overall batch: 19100

Epoch: 39
Training loss: 4.229279041290283 / Valid loss: 6.093863151186988
Model is saved in epoch 39, overall batch: 19200
Training loss: 6.332876682281494 / Valid loss: 6.084366594042097
Model is saved in epoch 39, overall batch: 19300
Training loss: 7.369969367980957 / Valid loss: 6.07105644089835
Model is saved in epoch 39, overall batch: 19400
Training loss: 6.377756118774414 / Valid loss: 6.061640510104952
Model is saved in epoch 39, overall batch: 19500
ModuleList(
  (0): Linear(in_features=31191, out_features=1, bias=True)
)
Loss on test set of optimal model (batch 19500): 5.882078559058053
Training regression with following parameters:
dnn_hidden_units : 2000, 100, 16
dropout_probs : 0.0, 0.0
learning_rate : 0.001
nr_epochs : 40
batch_size : 64
eval_freq : 100
data_dir : Data/
neg_slope : 0.02
optimizer : SGD
amsgrad : False
batchnorm : True
weightdecay : 0.0
momentum : 0
embedder : Bert
verbose : False
reduced_classes : False
Device : cuda
ModuleList(
  (0): Linear(in_features=5376, out_features=2000, bias=True)
  (1): Dropout(p=0.0, inplace=False)
  (2): BatchNorm1d(2000, eps=1e-05, momentum=0.1, affine=True, track_running_stats=True)
  (3): LeakyReLU(negative_slope=0.02)
  (4): Linear(in_features=2000, out_features=100, bias=True)
  (5): Dropout(p=0.0, inplace=False)
  (6): BatchNorm1d(100, eps=1e-05, momentum=0.1, affine=True, track_running_stats=True)
  (7): LeakyReLU(negative_slope=0.02)
  (8): Linear(in_features=100, out_features=16, bias=True)
  (9): Dropout(p=0, inplace=False)
  (10): BatchNorm1d(16, eps=1e-05, momentum=0.1, affine=True, track_running_stats=True)
  (11): LeakyReLU(negative_slope=0.02)
  (12): Linear(in_features=16, out_features=1, bias=True)
)

Epoch: 0
Training loss: 15.765700340270996 / Valid loss: 15.266402771359399
Model is saved in epoch 0, overall batch: 0
Training loss: 5.042430877685547 / Valid loss: 7.500886340368361
Model is saved in epoch 0, overall batch: 100
Training loss: 4.23737907409668 / Valid loss: 5.921776885078067
Model is saved in epoch 0, overall batch: 200
Training loss: 6.29364538192749 / Valid loss: 5.682949795041766
…
